…
I1005 16:45:10.836616 15764 solver.cpp:97] Creating training net from net file: small_batch/model1_part2.prototxt
I1005 16:45:10.836787 15764 net.cpp:339] The NetState phase (0) differed from the phase (1) specified by a rule in layer data_layer
I1005 16:45:10.836837 15764 net.cpp:50] Initializing net from parameters: 
name: "small_batch/model1_part2.prototxt"
state {
  phase: TRAIN
}
layer {
  name: "data_layer"
  type: "Data"
  top: "data_blob"
  top: "label_blob"
  include {
    phase: TRAIN
  }
  data_param {
    source: "lmdb/SCOREDATA.vina.balanced.part2.train"
    batch_size: 200
    backend: LMDB
    prefetch: 8
  }
}
layer {
  name: "hidden_sum_layer"
  type: "InnerProduct"
  bottom: "data_blob"
  top: "hidden_sum_blob"
  inner_product_param {
    num_output: 10
    weight_filler {
      type: "xavier"
    }
    bias_filler {
      type: "constant"
    }
  }
}
layer {
  name: "hidden_act_layer"
  type: "Sigmoid"
  bottom: "hidden_sum_blob"
  top: "hidden_act_blob"
}
layer {
  name: "output_sum_layer"
  type: "InnerProduct"
  bottom: "hidden_act_blob"
  top: "output_sum_blob"
  inner_product_param {
    num_output: 1
    weight_filler {
      type: "xavier"
    }
    bias_filler {
      type: "constant"
    }
  }
}
layer {
  name: "output_act_layer"
  type: "Sigmoid"
  bottom: "output_sum_blob"
  top: "output_act_blob"
}
layer {
  name: "error_layer"
  type: "EuclideanLoss"
  bottom: "output_act_blob"
  bottom: "label_blob"
  top: "error_blob"
}
I1005 16:45:10.836913 15764 layer_factory.hpp:76] Creating layer data_layer
I1005 16:45:10.837393 15764 net.cpp:110] Creating Layer data_layer
I1005 16:45:10.837424 15764 net.cpp:433] data_layer -> data_blob
I1005 16:45:10.837467 15764 net.cpp:433] data_layer -> label_blob
I1005 16:45:10.838068 15768 db_lmdb.cpp:23] Opened lmdb lmdb/SCOREDATA.vina.balanced.part2.train
I1005 16:45:11.520800 15764 data_layer.cpp:45] output data size: 200,61,1,1
I1005 16:45:11.521337 15764 net.cpp:155] Setting up data_layer
I1005 16:45:11.521370 15764 net.cpp:163] Top shape: 200 61 1 1 (12200)
I1005 16:45:11.521374 15764 net.cpp:163] Top shape: 200 (200)
I1005 16:45:11.521379 15764 layer_factory.hpp:76] Creating layer hidden_sum_layer
I1005 16:45:11.521404 15764 net.cpp:110] Creating Layer hidden_sum_layer
I1005 16:45:11.521407 15764 net.cpp:477] hidden_sum_layer <- data_blob
I1005 16:45:11.521425 15764 net.cpp:433] hidden_sum_layer -> hidden_sum_blob
I1005 16:45:11.521793 15764 net.cpp:155] Setting up hidden_sum_layer
I1005 16:45:11.521800 15764 net.cpp:163] Top shape: 200 10 (2000)
I1005 16:45:11.521821 15764 layer_factory.hpp:76] Creating layer hidden_act_layer
I1005 16:45:11.521839 15764 net.cpp:110] Creating Layer hidden_act_layer
I1005 16:45:11.521842 15764 net.cpp:477] hidden_act_layer <- hidden_sum_blob
I1005 16:45:11.521845 15764 net.cpp:433] hidden_act_layer -> hidden_act_blob
I1005 16:45:14.740844 15764 net.cpp:155] Setting up hidden_act_layer
I1005 16:45:14.740866 15764 net.cpp:163] Top shape: 200 10 (2000)
I1005 16:45:14.740871 15764 layer_factory.hpp:76] Creating layer output_sum_layer
I1005 16:45:14.740881 15764 net.cpp:110] Creating Layer output_sum_layer
I1005 16:45:14.740885 15764 net.cpp:477] output_sum_layer <- hidden_act_blob
I1005 16:45:14.740890 15764 net.cpp:433] output_sum_layer -> output_sum_blob
I1005 16:45:14.740972 15764 net.cpp:155] Setting up output_sum_layer
I1005 16:45:14.740978 15764 net.cpp:163] Top shape: 200 1 (200)
I1005 16:45:14.740994 15764 layer_factory.hpp:76] Creating layer output_act_layer
I1005 16:45:14.740999 15764 net.cpp:110] Creating Layer output_act_layer
I1005 16:45:14.741001 15764 net.cpp:477] output_act_layer <- output_sum_blob
I1005 16:45:14.741014 15764 net.cpp:433] output_act_layer -> output_act_blob
I1005 16:45:14.741114 15764 net.cpp:155] Setting up output_act_layer
I1005 16:45:14.741119 15764 net.cpp:163] Top shape: 200 1 (200)
I1005 16:45:14.741137 15764 layer_factory.hpp:76] Creating layer error_layer
I1005 16:45:14.741142 15764 net.cpp:110] Creating Layer error_layer
I1005 16:45:14.741144 15764 net.cpp:477] error_layer <- output_act_blob
I1005 16:45:14.741147 15764 net.cpp:477] error_layer <- label_blob
I1005 16:45:14.741150 15764 net.cpp:433] error_layer -> error_blob
I1005 16:45:14.741183 15764 net.cpp:155] Setting up error_layer
…
I1005 16:45:14.741359 15764 solver.cpp:187] Creating test net (#0) specified by net file: small_batch/model1_part2.prototxt
I1005 16:45:14.741390 15764 net.cpp:339] The NetState phase (1) differed from the phase (0) specified by a rule in layer data_layer
I1005 16:45:14.741448 15764 net.cpp:50] Initializing net from parameters: 
name: "small_batch/model1_part2.prototxt"
state {
  phase: TEST
}
layer {
  name: "data_layer"
  type: "Data"
  top: "data_blob"
  top: "label_blob"
  include {
    phase: TEST
  }
  data_param {
    source: "lmdb/SCOREDATA.vina.balanced.part2.test"
    batch_size: 20
    backend: LMDB
    prefetch: 8
  }
}
layer {
  name: "hidden_sum_layer"
  type: "InnerProduct"
  bottom: "data_blob"
  top: "hidden_sum_blob"
  inner_product_param {
    num_output: 10
    weight_filler {
      type: "xavier"
    }
    bias_filler {
      type: "constant"
    }
  }
}
layer {
  name: "hidden_act_layer"
  type: "Sigmoid"
  bottom: "hidden_sum_blob"
  top: "hidden_act_blob"
}
layer {
  name: "output_sum_layer"
  type: "InnerProduct"
  bottom: "hidden_act_blob"
  top: "output_sum_blob"
  inner_product_param {
    num_output: 1
    weight_filler {
      type: "xavier"
    }
    bias_filler {
      type: "constant"
    }
  }
}
layer {
  name: "output_act_layer"
  type: "Sigmoid"
  bottom: "output_sum_blob"
  top: "output_act_blob"
}
layer {
  name: "error_layer"
  type: "EuclideanLoss"
  bottom: "output_act_blob"
  bottom: "label_blob"
  top: "error_blob"
}
I1005 16:45:14.741487 15764 layer_factory.hpp:76] Creating layer data_layer
I1005 16:45:14.741547 15764 net.cpp:110] Creating Layer data_layer
I1005 16:45:14.741551 15764 net.cpp:433] data_layer -> data_blob
I1005 16:45:14.741556 15764 net.cpp:433] data_layer -> label_blob
I1005 16:45:14.742112 15770 db_lmdb.cpp:23] Opened lmdb lmdb/SCOREDATA.vina.balanced.part2.test
I1005 16:45:14.742192 15764 data_layer.cpp:45] output data size: 20,61,1,1
I1005 16:45:14.742704 15764 net.cpp:155] Setting up data_layer
I1005 16:45:14.742712 15764 net.cpp:163] Top shape: 20 61 1 1 (1220)
I1005 16:45:14.742715 15764 net.cpp:163] Top shape: 20 (20)
I1005 16:45:14.742718 15764 layer_factory.hpp:76] Creating layer hidden_sum_layer
I1005 16:45:14.742723 15764 net.cpp:110] Creating Layer hidden_sum_layer
I1005 16:45:14.742725 15764 net.cpp:477] hidden_sum_layer <- data_blob
I1005 16:45:14.742728 15764 net.cpp:433] hidden_sum_layer -> hidden_sum_blob
I1005 16:45:14.742825 15764 net.cpp:155] Setting up hidden_sum_layer
I1005 16:45:14.742830 15764 net.cpp:163] Top shape: 20 10 (200)
I1005 16:45:14.742835 15764 layer_factory.hpp:76] Creating layer hidden_act_layer
I1005 16:45:14.742840 15764 net.cpp:110] Creating Layer hidden_act_layer
I1005 16:45:14.742841 15764 net.cpp:477] hidden_act_layer <- hidden_sum_blob
I1005 16:45:14.742851 15764 net.cpp:433] hidden_act_layer -> hidden_act_blob
I1005 16:45:14.743011 15764 net.cpp:155] Setting up hidden_act_layer
I1005 16:45:14.743018 15764 net.cpp:163] Top shape: 20 10 (200)
I1005 16:45:14.743021 15764 layer_factory.hpp:76] Creating layer output_sum_layer
I1005 16:45:14.743024 15764 net.cpp:110] Creating Layer output_sum_layer
I1005 16:45:14.743026 15764 net.cpp:477] output_sum_layer <- hidden_act_blob
I1005 16:45:14.743029 15764 net.cpp:433] output_sum_layer -> output_sum_blob
I1005 16:45:14.743079 15764 net.cpp:155] Setting up output_sum_layer
I1005 16:45:14.743084 15764 net.cpp:163] Top shape: 20 1 (20)
I1005 16:45:14.743089 15764 layer_factory.hpp:76] Creating layer output_act_layer
I1005 16:45:14.743093 15764 net.cpp:110] Creating Layer output_act_layer
I1005 16:45:14.743094 15764 net.cpp:477] output_act_layer <- output_sum_blob
I1005 16:45:14.743098 15764 net.cpp:433] output_act_layer -> output_act_blob
I1005 16:45:14.743144 15764 net.cpp:155] Setting up output_act_layer
I1005 16:45:14.743147 15764 net.cpp:163] Top shape: 20 1 (20)
I1005 16:45:14.743149 15764 layer_factory.hpp:76] Creating layer error_layer
I1005 16:45:14.743152 15764 net.cpp:110] Creating Layer error_layer
I1005 16:45:14.743155 15764 net.cpp:477] error_layer <- output_act_blob
I1005 16:45:14.743156 15764 net.cpp:477] error_layer <- label_blob
I1005 16:45:14.743158 15764 net.cpp:433] error_layer -> error_blob
I1005 16:45:14.743175 15764 net.cpp:155] Setting up error_layer
…
