…
momentum: 0.9
solver_mode: GPU
device_id: 0
net: "large_batch/model0_full.prototxt"
I1005 20:37:09.865855 16110 solver.cpp:97] Creating training net from net file: large_batch/model0_full.prototxt
I1005 20:37:09.866078 16110 net.cpp:50] Initializing net from parameters: 
name: "large_batch/model0_full.prototxt"
state {
  phase: TRAIN
}
layer {
  name: "data_layer"
  type: "Data"
  top: "data_blob"
  top: "label_blob"
  data_param {
    source: "lmdb/SCOREDATA.vina.balanced.full"
    batch_size: 20000
    backend: LMDB
    prefetch: 8
  }
}
layer {
  name: "hidden_sum_layer"
  type: "InnerProduct"
  bottom: "data_blob"
  top: "hidden_sum_blob"
  inner_product_param {
    num_output: 10
    weight_filler {
      type: "xavier"
    }
    bias_filler {
      type: "constant"
    }
  }
}
layer {
  name: "hidden_act_layer"
  type: "Sigmoid"
  bottom: "hidden_sum_blob"
  top: "hidden_act_blob"
}
layer {
  name: "output_sum_layer"
  type: "InnerProduct"
  bottom: "hidden_act_blob"
  top: "output_sum_blob"
  inner_product_param {
    num_output: 1
    weight_filler {
      type: "xavier"
    }
    bias_filler {
      type: "constant"
    }
  }
}
layer {
  name: "output_act_layer"
  type: "Sigmoid"
  bottom: "output_sum_blob"
  top: "output_act_blob"
}
layer {
  name: "error_layer"
  type: "EuclideanLoss"
  bottom: "output_act_blob"
  bottom: "label_blob"
  top: "error_blob"
}
I1005 20:37:09.866128 16110 layer_factory.hpp:76] Creating layer data_layer
I1005 20:37:09.879513 16110 net.cpp:110] Creating Layer data_layer
I1005 20:37:09.879545 16110 net.cpp:433] data_layer -> data_blob
I1005 20:37:09.879566 16110 net.cpp:433] data_layer -> label_blob
I1005 20:37:09.880179 16115 db_lmdb.cpp:23] Opened lmdb lmdb/SCOREDATA.vina.balanced.full
I1005 20:37:10.566716 16110 data_layer.cpp:45] output data size: 20000,61,1,1
I1005 20:37:10.571645 16110 net.cpp:155] Setting up data_layer
I1005 20:37:10.571686 16110 net.cpp:163] Top shape: 20000 61 1 1 (1220000)
I1005 20:37:10.571689 16110 net.cpp:163] Top shape: 20000 (20000)
I1005 20:37:10.571694 16110 layer_factory.hpp:76] Creating layer hidden_sum_layer
I1005 20:37:10.571705 16110 net.cpp:110] Creating Layer hidden_sum_layer
I1005 20:37:10.571722 16110 net.cpp:477] hidden_sum_layer <- data_blob
I1005 20:37:10.571743 16110 net.cpp:433] hidden_sum_layer -> hidden_sum_blob
I1005 20:37:10.572113 16110 net.cpp:155] Setting up hidden_sum_layer
I1005 20:37:10.572119 16110 net.cpp:163] Top shape: 20000 10 (200000)
I1005 20:37:10.572141 16110 layer_factory.hpp:76] Creating layer hidden_act_layer
I1005 20:37:10.572162 16110 net.cpp:110] Creating Layer hidden_act_layer
I1005 20:37:10.572177 16110 net.cpp:477] hidden_act_layer <- hidden_sum_blob
I1005 20:37:10.572181 16110 net.cpp:433] hidden_act_layer -> hidden_act_blob
I1005 20:37:13.791424 16110 net.cpp:155] Setting up hidden_act_layer
I1005 20:37:13.791446 16110 net.cpp:163] Top shape: 20000 10 (200000)
I1005 20:37:13.791450 16110 layer_factory.hpp:76] Creating layer output_sum_layer
I1005 20:37:13.791460 16110 net.cpp:110] Creating Layer output_sum_layer
I1005 20:37:13.791463 16110 net.cpp:477] output_sum_layer <- hidden_act_blob
I1005 20:37:13.791468 16110 net.cpp:433] output_sum_layer -> output_sum_blob
I1005 20:37:13.791565 16110 net.cpp:155] Setting up output_sum_layer
I1005 20:37:13.791569 16110 net.cpp:163] Top shape: 20000 1 (20000)
I1005 20:37:13.791576 16110 layer_factory.hpp:76] Creating layer output_act_layer
I1005 20:37:13.791599 16110 net.cpp:110] Creating Layer output_act_layer
I1005 20:37:13.791601 16110 net.cpp:477] output_act_layer <- output_sum_blob
I1005 20:37:13.791604 16110 net.cpp:433] output_act_layer -> output_act_blob
I1005 20:37:13.791666 16110 net.cpp:155] Setting up output_act_layer
I1005 20:37:13.791669 16110 net.cpp:163] Top shape: 20000 1 (20000)
I1005 20:37:13.791671 16110 layer_factory.hpp:76] Creating layer error_layer
I1005 20:37:13.791676 16110 net.cpp:110] Creating Layer error_layer
I1005 20:37:13.791702 16110 net.cpp:477] error_layer <- output_act_blob
I1005 20:37:13.791705 16110 net.cpp:477] error_layer <- label_blob
I1005 20:37:13.791709 16110 net.cpp:433] error_layer -> error_blob
I1005 20:37:13.791733 16110 net.cpp:155] Setting up error_layer
…
I1005 20:41:24.302270 16130 solver.cpp:187] Creating test net (#0) specified by net file: large_batch/model0_part9.prototxt
I1005 20:41:24.302283 16130 net.cpp:339] The NetState phase (1) differed from the phase (0) specified by a rule in layer data_layer
I1005 20:41:24.302314 16130 net.cpp:50] Initializing net from parameters: 
name: "large_batch/model0_part9.prototxt"
state {
  phase: TEST
}
layer {
  name: "data_layer"
  type: "Data"
  top: "data_blob"
  top: "label_blob"
  include {
    phase: TEST
  }
  data_param {
    source: "lmdb/SCOREDATA.vina.balanced.part9.test"
    batch_size: 2000
    backend: LMDB
    prefetch: 8
  }
}
layer {
  name: "hidden_sum_layer"
  type: "InnerProduct"
  bottom: "data_blob"
  top: "hidden_sum_blob"
  inner_product_param {
    num_output: 10
    weight_filler {
      type: "xavier"
    }
    bias_filler {
      type: "constant"
    }
  }
}
layer {
  name: "hidden_act_layer"
  type: "Sigmoid"
  bottom: "hidden_sum_blob"
  top: "hidden_act_blob"
}
layer {
  name: "output_sum_layer"
  type: "InnerProduct"
  bottom: "hidden_act_blob"
  top: "output_sum_blob"
  inner_product_param {
    num_output: 1
    weight_filler {
      type: "xavier"
    }
    bias_filler {
      type: "constant"
    }
  }
}
layer {
  name: "output_act_layer"
  type: "Sigmoid"
  bottom: "output_sum_blob"
  top: "output_act_blob"
}
layer {
  name: "error_layer"
  type: "EuclideanLoss"
  bottom: "output_act_blob"
  bottom: "label_blob"
  top: "error_blob"
}
I1005 20:41:24.302333 16130 layer_factory.hpp:76] Creating layer data_layer
I1005 20:41:24.303514 16130 net.cpp:110] Creating Layer data_layer
I1005 20:41:24.303529 16130 net.cpp:433] data_layer -> data_blob
I1005 20:41:24.303534 16130 net.cpp:433] data_layer -> label_blob
I1005 20:41:24.304080 16136 db_lmdb.cpp:23] Opened lmdb lmdb/SCOREDATA.vina.balanced.part9.test
I1005 20:41:24.304142 16130 data_layer.cpp:45] output data size: 2000,61,1,1
I1005 20:41:24.305519 16130 net.cpp:155] Setting up data_layer
I1005 20:41:24.305531 16130 net.cpp:163] Top shape: 2000 61 1 1 (122000)
I1005 20:41:24.305534 16130 net.cpp:163] Top shape: 2000 (2000)
I1005 20:41:24.305537 16130 layer_factory.hpp:76] Creating layer hidden_sum_layer
I1005 20:41:24.305546 16130 net.cpp:110] Creating Layer hidden_sum_layer
I1005 20:41:24.305547 16130 net.cpp:477] hidden_sum_layer <- data_blob
I1005 20:41:24.305552 16130 net.cpp:433] hidden_sum_layer -> hidden_sum_blob
I1005 20:41:24.305699 16130 net.cpp:155] Setting up hidden_sum_layer
I1005 20:41:24.305706 16130 net.cpp:163] Top shape: 2000 10 (20000)
I1005 20:41:24.305713 16130 layer_factory.hpp:76] Creating layer hidden_act_layer
I1005 20:41:24.305717 16130 net.cpp:110] Creating Layer hidden_act_layer
I1005 20:41:24.305721 16130 net.cpp:477] hidden_act_layer <- hidden_sum_blob
I1005 20:41:24.305734 16130 net.cpp:433] hidden_act_layer -> hidden_act_blob
I1005 20:41:24.305903 16130 net.cpp:155] Setting up hidden_act_layer
I1005 20:41:24.305912 16130 net.cpp:163] Top shape: 2000 10 (20000)
I1005 20:41:24.305914 16130 layer_factory.hpp:76] Creating layer output_sum_layer
I1005 20:41:24.305919 16130 net.cpp:110] Creating Layer output_sum_layer
I1005 20:41:24.305922 16130 net.cpp:477] output_sum_layer <- hidden_act_blob
I1005 20:41:24.305925 16130 net.cpp:433] output_sum_layer -> output_sum_blob
I1005 20:41:24.305984 16130 net.cpp:155] Setting up output_sum_layer
I1005 20:41:24.305989 16130 net.cpp:163] Top shape: 2000 1 (2000)
I1005 20:41:24.305994 16130 layer_factory.hpp:76] Creating layer output_act_layer
I1005 20:41:24.305997 16130 net.cpp:110] Creating Layer output_act_layer
I1005 20:41:24.305999 16130 net.cpp:477] output_act_layer <- output_sum_blob
I1005 20:41:24.306002 16130 net.cpp:433] output_act_layer -> output_act_blob
I1005 20:41:24.306051 16130 net.cpp:155] Setting up output_act_layer
I1005 20:41:24.306054 16130 net.cpp:163] Top shape: 2000 1 (2000)
I1005 20:41:24.306057 16130 layer_factory.hpp:76] Creating layer error_layer
I1005 20:41:24.306061 16130 net.cpp:110] Creating Layer error_layer
I1005 20:41:24.306063 16130 net.cpp:477] error_layer <- output_act_blob
I1005 20:41:24.306066 16130 net.cpp:477] error_layer <- label_blob
I1005 20:41:24.306068 16130 net.cpp:433] error_layer -> error_blob
I1005 20:41:24.306087 16130 net.cpp:155] Setting up error_layer
…
