…
I1006 15:42:07.088114 22737 solver.cpp:97] Creating training net from net file: full_batch_sce/model2_part2.prototxt
I1006 15:42:07.088279 22737 net.cpp:339] The NetState phase (0) differed from the phase (1) specified by a rule in layer data_layer
I1006 15:42:07.088321 22737 net.cpp:50] Initializing net from parameters: 
name: "full_batch_sce/model2_part2.prototxt"
state {
  phase: TRAIN
}
layer {
  name: "data_layer"
  type: "Data"
  top: "data_blob"
  top: "label_blob"
  include {
    phase: TRAIN
  }
  data_param {
    source: "lmdb/SCOREDATA.vina.balanced.part2.train"
    batch_size: 40000
    backend: LMDB
    prefetch: 8
  }
}
layer {
  name: "hidden_sum_layer"
  type: "InnerProduct"
  bottom: "data_blob"
  top: "hidden_sum_blob"
  inner_product_param {
    num_output: 10
    weight_filler {
      type: "xavier"
    }
    bias_filler {
      type: "constant"
    }
  }
}
layer {
  name: "hidden_act_layer"
  type: "Sigmoid"
  bottom: "hidden_sum_blob"
  top: "hidden_act_blob"
}
layer {
  name: "output_sum_layer"
  type: "InnerProduct"
  bottom: "hidden_act_blob"
  top: "output_sum_blob"
  inner_product_param {
    num_output: 1
    weight_filler {
      type: "xavier"
    }
    bias_filler {
      type: "constant"
    }
  }
}
layer {
  name: "output_act_layer"
  type: "Sigmoid"
  bottom: "output_sum_blob"
  top: "output_act_blob"
}
layer {
  name: "error_layer"
  type: "SigmoidCrossEntropyLoss"
  bottom: "output_act_blob"
  bottom: "label_blob"
  top: "error_blob"
}
I1006 15:42:07.088363 22737 layer_factory.hpp:76] Creating layer data_layer
I1006 15:42:07.114884 22737 net.cpp:110] Creating Layer data_layer
I1006 15:42:07.114914 22737 net.cpp:433] data_layer -> data_blob
I1006 15:42:07.114936 22737 net.cpp:433] data_layer -> label_blob
I1006 15:42:07.115499 22741 db_lmdb.cpp:23] Opened lmdb lmdb/SCOREDATA.vina.balanced.part2.train
I1006 15:42:07.801570 22737 data_layer.cpp:45] output data size: 40000,61,1,1
I1006 15:42:07.812170 22737 net.cpp:155] Setting up data_layer
I1006 15:42:07.812224 22737 net.cpp:163] Top shape: 40000 61 1 1 (2440000)
I1006 15:42:07.812230 22737 net.cpp:163] Top shape: 40000 (40000)
I1006 15:42:07.812248 22737 layer_factory.hpp:76] Creating layer hidden_sum_layer
I1006 15:42:07.812271 22737 net.cpp:110] Creating Layer hidden_sum_layer
I1006 15:42:07.812278 22737 net.cpp:477] hidden_sum_layer <- data_blob
I1006 15:42:07.812312 22737 net.cpp:433] hidden_sum_layer -> hidden_sum_blob
I1006 15:42:07.812722 22737 net.cpp:155] Setting up hidden_sum_layer
I1006 15:42:07.812741 22737 net.cpp:163] Top shape: 40000 10 (400000)
I1006 15:42:07.812752 22737 layer_factory.hpp:76] Creating layer hidden_act_layer
I1006 15:42:07.812772 22737 net.cpp:110] Creating Layer hidden_act_layer
I1006 15:42:07.812777 22737 net.cpp:477] hidden_act_layer <- hidden_sum_blob
I1006 15:42:07.812790 22737 net.cpp:433] hidden_act_layer -> hidden_act_blob
I1006 15:42:11.016165 22737 net.cpp:155] Setting up hidden_act_layer
I1006 15:42:11.016197 22737 net.cpp:163] Top shape: 40000 10 (400000)
I1006 15:42:11.016201 22737 layer_factory.hpp:76] Creating layer output_sum_layer
I1006 15:42:11.016211 22737 net.cpp:110] Creating Layer output_sum_layer
I1006 15:42:11.016214 22737 net.cpp:477] output_sum_layer <- hidden_act_blob
I1006 15:42:11.016219 22737 net.cpp:433] output_sum_layer -> output_sum_blob
I1006 15:42:11.016332 22737 net.cpp:155] Setting up output_sum_layer
I1006 15:42:11.016341 22737 net.cpp:163] Top shape: 40000 1 (40000)
I1006 15:42:11.016361 22737 layer_factory.hpp:76] Creating layer output_act_layer
I1006 15:42:11.016367 22737 net.cpp:110] Creating Layer output_act_layer
I1006 15:42:11.016369 22737 net.cpp:477] output_act_layer <- output_sum_blob
I1006 15:42:11.016372 22737 net.cpp:433] output_act_layer -> output_act_blob
I1006 15:42:11.016453 22737 net.cpp:155] Setting up output_act_layer
I1006 15:42:11.016470 22737 net.cpp:163] Top shape: 40000 1 (40000)
I1006 15:42:11.016484 22737 layer_factory.hpp:76] Creating layer error_layer
I1006 15:42:11.016500 22737 net.cpp:110] Creating Layer error_layer
I1006 15:42:11.016504 22737 net.cpp:477] error_layer <- output_act_blob
I1006 15:42:11.016506 22737 net.cpp:477] error_layer <- label_blob
I1006 15:42:11.016510 22737 net.cpp:433] error_layer -> error_blob
I1006 15:42:11.016556 22737 net.cpp:155] Setting up error_layer
…
I1006 15:42:11.016773 22737 solver.cpp:187] Creating test net (#0) specified by net file: full_batch_sce/model2_part2.prototxt
I1006 15:42:11.016789 22737 net.cpp:339] The NetState phase (1) differed from the phase (0) specified by a rule in layer data_layer
I1006 15:42:11.016836 22737 net.cpp:50] Initializing net from parameters: 
name: "full_batch_sce/model2_part2.prototxt"
state {
  phase: TEST
}
layer {
  name: "data_layer"
  type: "Data"
  top: "data_blob"
  top: "label_blob"
  include {
    phase: TEST
  }
  data_param {
    source: "lmdb/SCOREDATA.vina.balanced.part2.test"
    batch_size: 4000
    backend: LMDB
    prefetch: 8
  }
}
layer {
  name: "hidden_sum_layer"
  type: "InnerProduct"
  bottom: "data_blob"
  top: "hidden_sum_blob"
  inner_product_param {
    num_output: 10
    weight_filler {
      type: "xavier"
    }
    bias_filler {
      type: "constant"
    }
  }
}
layer {
  name: "hidden_act_layer"
  type: "Sigmoid"
  bottom: "hidden_sum_blob"
  top: "hidden_act_blob"
}
layer {
  name: "output_sum_layer"
  type: "InnerProduct"
  bottom: "hidden_act_blob"
  top: "output_sum_blob"
  inner_product_param {
    num_output: 1
    weight_filler {
      type: "xavier"
    }
    bias_filler {
      type: "constant"
    }
  }
}
layer {
  name: "output_act_layer"
  type: "Sigmoid"
  bottom: "output_sum_blob"
  top: "output_act_blob"
}
layer {
  name: "error_layer"
  type: "SigmoidCrossEntropyLoss"
  bottom: "output_act_blob"
  bottom: "label_blob"
  top: "error_blob"
}
I1006 15:42:11.016876 22737 layer_factory.hpp:76] Creating layer data_layer
I1006 15:42:11.019403 22737 net.cpp:110] Creating Layer data_layer
I1006 15:42:11.019420 22737 net.cpp:433] data_layer -> data_blob
I1006 15:42:11.019428 22737 net.cpp:433] data_layer -> label_blob
I1006 15:42:11.019991 22743 db_lmdb.cpp:23] Opened lmdb lmdb/SCOREDATA.vina.balanced.part2.test
I1006 15:42:11.020059 22737 data_layer.cpp:45] output data size: 4000,61,1,1
I1006 15:42:11.021993 22737 net.cpp:155] Setting up data_layer
I1006 15:42:11.022011 22737 net.cpp:163] Top shape: 4000 61 1 1 (244000)
I1006 15:42:11.022016 22737 net.cpp:163] Top shape: 4000 (4000)
I1006 15:42:11.022020 22737 layer_factory.hpp:76] Creating layer hidden_sum_layer
I1006 15:42:11.022032 22737 net.cpp:110] Creating Layer hidden_sum_layer
I1006 15:42:11.022054 22737 net.cpp:477] hidden_sum_layer <- data_blob
I1006 15:42:11.022074 22737 net.cpp:433] hidden_sum_layer -> hidden_sum_blob
I1006 15:42:11.022171 22737 net.cpp:155] Setting up hidden_sum_layer
I1006 15:42:11.022177 22737 net.cpp:163] Top shape: 4000 10 (40000)
I1006 15:42:11.022189 22737 layer_factory.hpp:76] Creating layer hidden_act_layer
I1006 15:42:11.022199 22737 net.cpp:110] Creating Layer hidden_act_layer
I1006 15:42:11.022213 22737 net.cpp:477] hidden_act_layer <- hidden_sum_blob
I1006 15:42:11.022222 22737 net.cpp:433] hidden_act_layer -> hidden_act_blob
I1006 15:42:11.022378 22737 net.cpp:155] Setting up hidden_act_layer
I1006 15:42:11.022387 22737 net.cpp:163] Top shape: 4000 10 (40000)
I1006 15:42:11.022392 22737 layer_factory.hpp:76] Creating layer output_sum_layer
I1006 15:42:11.022397 22737 net.cpp:110] Creating Layer output_sum_layer
I1006 15:42:11.022403 22737 net.cpp:477] output_sum_layer <- hidden_act_blob
I1006 15:42:11.022409 22737 net.cpp:433] output_sum_layer -> output_sum_blob
I1006 15:42:11.022480 22737 net.cpp:155] Setting up output_sum_layer
I1006 15:42:11.022488 22737 net.cpp:163] Top shape: 4000 1 (4000)
I1006 15:42:11.022497 22737 layer_factory.hpp:76] Creating layer output_act_layer
I1006 15:42:11.022505 22737 net.cpp:110] Creating Layer output_act_layer
I1006 15:42:11.022510 22737 net.cpp:477] output_act_layer <- output_sum_blob
I1006 15:42:11.022516 22737 net.cpp:433] output_act_layer -> output_act_blob
I1006 15:42:11.022575 22737 net.cpp:155] Setting up output_act_layer
I1006 15:42:11.022583 22737 net.cpp:163] Top shape: 4000 1 (4000)
I1006 15:42:11.022586 22737 layer_factory.hpp:76] Creating layer error_layer
I1006 15:42:11.022593 22737 net.cpp:110] Creating Layer error_layer
I1006 15:42:11.022598 22737 net.cpp:477] error_layer <- output_act_blob
I1006 15:42:11.022603 22737 net.cpp:477] error_layer <- label_blob
I1006 15:42:11.022608 22737 net.cpp:433] error_layer -> error_blob
I1006 15:42:11.022637 22737 net.cpp:155] Setting up error_layer
…
