…
momentum: 0.9
solver_mode: GPU
device_id: 0
net: "full_batch_sce/model2_full.prototxt"
I1006 15:38:06.988541 22673 solver.cpp:97] Creating training net from net file: full_batch_sce/model2_full.prototxt
I1006 15:38:06.988700 22673 net.cpp:50] Initializing net from parameters: 
name: "full_batch_sce/model2_full.prototxt"
state {
  phase: TRAIN
}
layer {
  name: "data_layer"
  type: "Data"
  top: "data_blob"
  top: "label_blob"
  data_param {
    source: "lmdb/SCOREDATA.vina.balanced.full"
    batch_size: 40000
    backend: LMDB
    prefetch: 8
  }
}
layer {
  name: "hidden_sum_layer"
  type: "InnerProduct"
  bottom: "data_blob"
  top: "hidden_sum_blob"
  inner_product_param {
    num_output: 10
    weight_filler {
      type: "xavier"
    }
    bias_filler {
      type: "constant"
    }
  }
}
layer {
  name: "hidden_act_layer"
  type: "Sigmoid"
  bottom: "hidden_sum_blob"
  top: "hidden_act_blob"
}
layer {
  name: "output_sum_layer"
  type: "InnerProduct"
  bottom: "hidden_act_blob"
  top: "output_sum_blob"
  inner_product_param {
    num_output: 1
    weight_filler {
      type: "xavier"
    }
    bias_filler {
      type: "constant"
    }
  }
}
layer {
  name: "output_act_layer"
  type: "Sigmoid"
  bottom: "output_sum_blob"
  top: "output_act_blob"
}
layer {
  name: "error_layer"
  type: "SigmoidCrossEntropyLoss"
  bottom: "output_act_blob"
  bottom: "label_blob"
  top: "error_blob"
}
I1006 15:38:06.988749 22673 layer_factory.hpp:76] Creating layer data_layer
I1006 15:38:07.014703 22673 net.cpp:110] Creating Layer data_layer
I1006 15:38:07.014726 22673 net.cpp:433] data_layer -> data_blob
I1006 15:38:07.014752 22673 net.cpp:433] data_layer -> label_blob
I1006 15:38:07.015333 22677 db_lmdb.cpp:23] Opened lmdb lmdb/SCOREDATA.vina.balanced.full
I1006 15:38:07.702397 22673 data_layer.cpp:45] output data size: 40000,61,1,1
I1006 15:38:07.712932 22673 net.cpp:155] Setting up data_layer
I1006 15:38:07.712985 22673 net.cpp:163] Top shape: 40000 61 1 1 (2440000)
I1006 15:38:07.712991 22673 net.cpp:163] Top shape: 40000 (40000)
I1006 15:38:07.713007 22673 layer_factory.hpp:76] Creating layer hidden_sum_layer
I1006 15:38:07.713029 22673 net.cpp:110] Creating Layer hidden_sum_layer
I1006 15:38:07.713033 22673 net.cpp:477] hidden_sum_layer <- data_blob
I1006 15:38:07.713054 22673 net.cpp:433] hidden_sum_layer -> hidden_sum_blob
I1006 15:38:07.713456 22673 net.cpp:155] Setting up hidden_sum_layer
I1006 15:38:07.713464 22673 net.cpp:163] Top shape: 40000 10 (400000)
I1006 15:38:07.713486 22673 layer_factory.hpp:76] Creating layer hidden_act_layer
I1006 15:38:07.713505 22673 net.cpp:110] Creating Layer hidden_act_layer
I1006 15:38:07.713506 22673 net.cpp:477] hidden_act_layer <- hidden_sum_blob
I1006 15:38:07.713510 22673 net.cpp:433] hidden_act_layer -> hidden_act_blob
I1006 15:38:10.934792 22673 net.cpp:155] Setting up hidden_act_layer
I1006 15:38:10.934814 22673 net.cpp:163] Top shape: 40000 10 (400000)
I1006 15:38:10.934819 22673 layer_factory.hpp:76] Creating layer output_sum_layer
I1006 15:38:10.934828 22673 net.cpp:110] Creating Layer output_sum_layer
I1006 15:38:10.934831 22673 net.cpp:477] output_sum_layer <- hidden_act_blob
I1006 15:38:10.934836 22673 net.cpp:433] output_sum_layer -> output_sum_blob
I1006 15:38:10.934945 22673 net.cpp:155] Setting up output_sum_layer
I1006 15:38:10.934950 22673 net.cpp:163] Top shape: 40000 1 (40000)
I1006 15:38:10.934957 22673 layer_factory.hpp:76] Creating layer output_act_layer
I1006 15:38:10.934962 22673 net.cpp:110] Creating Layer output_act_layer
I1006 15:38:10.934973 22673 net.cpp:477] output_act_layer <- output_sum_blob
I1006 15:38:10.934976 22673 net.cpp:433] output_act_layer -> output_act_blob
I1006 15:38:10.935057 22673 net.cpp:155] Setting up output_act_layer
I1006 15:38:10.935061 22673 net.cpp:163] Top shape: 40000 1 (40000)
I1006 15:38:10.935062 22673 layer_factory.hpp:76] Creating layer error_layer
I1006 15:38:10.935068 22673 net.cpp:110] Creating Layer error_layer
I1006 15:38:10.935083 22673 net.cpp:477] error_layer <- output_act_blob
I1006 15:38:10.935096 22673 net.cpp:477] error_layer <- label_blob
I1006 15:38:10.935101 22673 net.cpp:433] error_layer -> error_blob
I1006 15:38:10.935123 22673 net.cpp:155] Setting up error_layer
…
