…
I1006 11:34:46.627043 18300 solver.cpp:97] Creating training net from net file: small_batch/model1_part2.prototxt
I1006 11:34:46.627202 18300 net.cpp:339] The NetState phase (0) differed from the phase (1) specified by a rule in layer data_layer
I1006 11:34:46.627249 18300 net.cpp:50] Initializing net from parameters: 
name: "small_batch/model1_part2.prototxt"
state {
  phase: TRAIN
}
layer {
  name: "data_layer"
  type: "Data"
  top: "data_blob"
  top: "label_blob"
  include {
    phase: TRAIN
  }
  data_param {
    source: "lmdb/SCOREDATA.vina.balanced.part2.train"
    batch_size: 200
    backend: LMDB
    prefetch: 8
  }
}
layer {
  name: "hidden_sum_layer"
  type: "InnerProduct"
  bottom: "data_blob"
  top: "hidden_sum_blob"
  inner_product_param {
    num_output: 10
    weight_filler {
      type: "xavier"
    }
    bias_filler {
      type: "constant"
    }
  }
}
layer {
  name: "hidden_act_layer"
  type: "Sigmoid"
  bottom: "hidden_sum_blob"
  top: "hidden_act_blob"
}
layer {
  name: "output_sum_layer"
  type: "InnerProduct"
  bottom: "hidden_act_blob"
  top: "output_sum_blob"
  inner_product_param {
    num_output: 1
    weight_filler {
      type: "xavier"
    }
    bias_filler {
      type: "constant"
    }
  }
}
layer {
  name: "output_act_layer"
  type: "Sigmoid"
  bottom: "output_sum_blob"
  top: "output_act_blob"
}
layer {
  name: "error_layer"
  type: "EuclideanLoss"
  bottom: "output_act_blob"
  bottom: "label_blob"
  top: "error_blob"
}
I1006 11:34:46.627313 18300 layer_factory.hpp:76] Creating layer data_layer
I1006 11:34:46.627913 18300 net.cpp:110] Creating Layer data_layer
I1006 11:34:46.627944 18300 net.cpp:433] data_layer -> data_blob
I1006 11:34:46.627990 18300 net.cpp:433] data_layer -> label_blob
I1006 11:34:46.628584 18305 db_lmdb.cpp:23] Opened lmdb lmdb/SCOREDATA.vina.balanced.part2.train
I1006 11:34:47.311542 18300 data_layer.cpp:45] output data size: 200,61,1,1
I1006 11:34:47.311998 18300 net.cpp:155] Setting up data_layer
I1006 11:34:47.312031 18300 net.cpp:163] Top shape: 200 61 1 1 (12200)
I1006 11:34:47.312036 18300 net.cpp:163] Top shape: 200 (200)
I1006 11:34:47.312052 18300 layer_factory.hpp:76] Creating layer hidden_sum_layer
I1006 11:34:47.312063 18300 net.cpp:110] Creating Layer hidden_sum_layer
I1006 11:34:47.312067 18300 net.cpp:477] hidden_sum_layer <- data_blob
I1006 11:34:47.312075 18300 net.cpp:433] hidden_sum_layer -> hidden_sum_blob
I1006 11:34:47.312430 18300 net.cpp:155] Setting up hidden_sum_layer
I1006 11:34:47.312438 18300 net.cpp:163] Top shape: 200 10 (2000)
I1006 11:34:47.312458 18300 layer_factory.hpp:76] Creating layer hidden_act_layer
I1006 11:34:47.312476 18300 net.cpp:110] Creating Layer hidden_act_layer
I1006 11:34:47.312479 18300 net.cpp:477] hidden_act_layer <- hidden_sum_blob
I1006 11:34:47.312481 18300 net.cpp:433] hidden_act_layer -> hidden_act_blob
I1006 11:34:50.563112 18300 net.cpp:155] Setting up hidden_act_layer
I1006 11:34:50.563136 18300 net.cpp:163] Top shape: 200 10 (2000)
I1006 11:34:50.563140 18300 layer_factory.hpp:76] Creating layer output_sum_layer
I1006 11:34:50.563150 18300 net.cpp:110] Creating Layer output_sum_layer
I1006 11:34:50.563153 18300 net.cpp:477] output_sum_layer <- hidden_act_blob
I1006 11:34:50.563158 18300 net.cpp:433] output_sum_layer -> output_sum_blob
I1006 11:34:50.563241 18300 net.cpp:155] Setting up output_sum_layer
I1006 11:34:50.563246 18300 net.cpp:163] Top shape: 200 1 (200)
I1006 11:34:50.563262 18300 layer_factory.hpp:76] Creating layer output_act_layer
I1006 11:34:50.563277 18300 net.cpp:110] Creating Layer output_act_layer
I1006 11:34:50.563278 18300 net.cpp:477] output_act_layer <- output_sum_blob
I1006 11:34:50.563280 18300 net.cpp:433] output_act_layer -> output_act_blob
I1006 11:34:50.563349 18300 net.cpp:155] Setting up output_act_layer
I1006 11:34:50.563352 18300 net.cpp:163] Top shape: 200 1 (200)
I1006 11:34:50.563370 18300 layer_factory.hpp:76] Creating layer error_layer
I1006 11:34:50.563385 18300 net.cpp:110] Creating Layer error_layer
I1006 11:34:50.563387 18300 net.cpp:477] error_layer <- output_act_blob
I1006 11:34:50.563390 18300 net.cpp:477] error_layer <- label_blob
I1006 11:34:50.563393 18300 net.cpp:433] error_layer -> error_blob
I1006 11:34:50.563415 18300 net.cpp:155] Setting up error_layer
…
I1006 11:34:50.563619 18300 solver.cpp:187] Creating test net (#0) specified by net file: small_batch/model1_part2.prototxt
I1006 11:34:50.563650 18300 net.cpp:339] The NetState phase (1) differed from the phase (0) specified by a rule in layer data_layer
I1006 11:34:50.563709 18300 net.cpp:50] Initializing net from parameters: 
name: "small_batch/model1_part2.prototxt"
state {
  phase: TEST
}
layer {
  name: "data_layer"
  type: "Data"
  top: "data_blob"
  top: "label_blob"
  include {
    phase: TEST
  }
  data_param {
    source: "lmdb/SCOREDATA.vina.balanced.part2.test"
    batch_size: 20
    backend: LMDB
    prefetch: 8
  }
}
layer {
  name: "hidden_sum_layer"
  type: "InnerProduct"
  bottom: "data_blob"
  top: "hidden_sum_blob"
  inner_product_param {
    num_output: 10
    weight_filler {
      type: "xavier"
    }
    bias_filler {
      type: "constant"
    }
  }
}
layer {
  name: "hidden_act_layer"
  type: "Sigmoid"
  bottom: "hidden_sum_blob"
  top: "hidden_act_blob"
}
layer {
  name: "output_sum_layer"
  type: "InnerProduct"
  bottom: "hidden_act_blob"
  top: "output_sum_blob"
  inner_product_param {
    num_output: 1
    weight_filler {
      type: "xavier"
    }
    bias_filler {
      type: "constant"
    }
  }
}
layer {
  name: "output_act_layer"
  type: "Sigmoid"
  bottom: "output_sum_blob"
  top: "output_act_blob"
}
layer {
  name: "error_layer"
  type: "EuclideanLoss"
  bottom: "output_act_blob"
  bottom: "label_blob"
  top: "error_blob"
}
I1006 11:34:50.563730 18300 layer_factory.hpp:76] Creating layer data_layer
I1006 11:34:50.563789 18300 net.cpp:110] Creating Layer data_layer
I1006 11:34:50.563803 18300 net.cpp:433] data_layer -> data_blob
I1006 11:34:50.563808 18300 net.cpp:433] data_layer -> label_blob
I1006 11:34:50.564355 18309 db_lmdb.cpp:23] Opened lmdb lmdb/SCOREDATA.vina.balanced.part2.test
I1006 11:34:50.564437 18300 data_layer.cpp:45] output data size: 20,61,1,1
I1006 11:34:50.564971 18300 net.cpp:155] Setting up data_layer
I1006 11:34:50.564980 18300 net.cpp:163] Top shape: 20 61 1 1 (1220)
I1006 11:34:50.564982 18300 net.cpp:163] Top shape: 20 (20)
I1006 11:34:50.564985 18300 layer_factory.hpp:76] Creating layer hidden_sum_layer
I1006 11:34:50.564990 18300 net.cpp:110] Creating Layer hidden_sum_layer
I1006 11:34:50.564991 18300 net.cpp:477] hidden_sum_layer <- data_blob
I1006 11:34:50.564996 18300 net.cpp:433] hidden_sum_layer -> hidden_sum_blob
I1006 11:34:50.565088 18300 net.cpp:155] Setting up hidden_sum_layer
I1006 11:34:50.565093 18300 net.cpp:163] Top shape: 20 10 (200)
I1006 11:34:50.565099 18300 layer_factory.hpp:76] Creating layer hidden_act_layer
I1006 11:34:50.565101 18300 net.cpp:110] Creating Layer hidden_act_layer
I1006 11:34:50.565104 18300 net.cpp:477] hidden_act_layer <- hidden_sum_blob
I1006 11:34:50.565114 18300 net.cpp:433] hidden_act_layer -> hidden_act_blob
I1006 11:34:50.565268 18300 net.cpp:155] Setting up hidden_act_layer
I1006 11:34:50.565274 18300 net.cpp:163] Top shape: 20 10 (200)
I1006 11:34:50.565276 18300 layer_factory.hpp:76] Creating layer output_sum_layer
I1006 11:34:50.565280 18300 net.cpp:110] Creating Layer output_sum_layer
I1006 11:34:50.565282 18300 net.cpp:477] output_sum_layer <- hidden_act_blob
I1006 11:34:50.565285 18300 net.cpp:433] output_sum_layer -> output_sum_blob
I1006 11:34:50.565337 18300 net.cpp:155] Setting up output_sum_layer
I1006 11:34:50.565342 18300 net.cpp:163] Top shape: 20 1 (20)
I1006 11:34:50.565347 18300 layer_factory.hpp:76] Creating layer output_act_layer
I1006 11:34:50.565351 18300 net.cpp:110] Creating Layer output_act_layer
I1006 11:34:50.565352 18300 net.cpp:477] output_act_layer <- output_sum_blob
I1006 11:34:50.565356 18300 net.cpp:433] output_act_layer -> output_act_blob
I1006 11:34:50.565402 18300 net.cpp:155] Setting up output_act_layer
I1006 11:34:50.565405 18300 net.cpp:163] Top shape: 20 1 (20)
I1006 11:34:50.565407 18300 layer_factory.hpp:76] Creating layer error_layer
I1006 11:34:50.565410 18300 net.cpp:110] Creating Layer error_layer
I1006 11:34:50.565412 18300 net.cpp:477] error_layer <- output_act_blob
I1006 11:34:50.565414 18300 net.cpp:477] error_layer <- label_blob
I1006 11:34:50.565417 18300 net.cpp:433] error_layer -> error_blob
I1006 11:34:50.565433 18300 net.cpp:155] Setting up error_layer
…
