…
lr_policy: "fixed"
momentum: 0.9
solver_mode: GPU
device_id: 0
net: "basic/model0_full.prototxt"
I1005 14:42:37.043210 14457 solver.cpp:97] Creating training net from net file: basic/model0_full.prototxt
I1005 14:42:37.043378 14457 net.cpp:50] Initializing net from parameters: 
name: "basic/model0_full.prototxt"
state {
  phase: TRAIN
}
layer {
  name: "data_layer"
  type: "Data"
  top: "data_blob"
  top: "label_blob"
  data_param {
    source: "lmdb/SCOREDATA.vina.balanced.full"
    batch_size: 20000
    backend: LMDB
    prefetch: 8
  }
}
layer {
  name: "hidden_sum_layer"
  type: "InnerProduct"
  bottom: "data_blob"
  top: "hidden_sum_blob"
  inner_product_param {
    num_output: 10
    weight_filler {
      type: "xavier"
    }
    bias_filler {
      type: "constant"
    }
  }
}
layer {
  name: "hidden_act_layer"
  type: "Sigmoid"
  bottom: "hidden_sum_blob"
  top: "hidden_act_blob"
}
layer {
  name: "output_sum_layer"
  type: "InnerProduct"
  bottom: "hidden_act_blob"
  top: "output_sum_blob"
  inner_product_param {
    num_output: 1
    weight_filler {
      type: "xavier"
    }
    bias_filler {
      type: "constant"
    }
  }
}
layer {
  name: "output_act_layer"
  type: "Sigmoid"
  bottom: "output_sum_blob"
  top: "output_act_blob"
}
layer {
  name: "error_layer"
  type: "EuclideanLoss"
  bottom: "output_act_blob"
  bottom: "label_blob"
  top: "error_blob"
}
I1005 14:42:37.043417 14457 layer_factory.hpp:76] Creating layer data_layer
I1005 14:42:37.056728 14457 net.cpp:110] Creating Layer data_layer
I1005 14:42:37.056766 14457 net.cpp:433] data_layer -> data_blob
I1005 14:42:37.056789 14457 net.cpp:433] data_layer -> label_blob
I1005 14:42:37.057402 14461 db_lmdb.cpp:23] Opened lmdb lmdb/SCOREDATA.vina.balanced.full
I1005 14:42:37.741991 14457 data_layer.cpp:45] output data size: 20000,61,1,1
I1005 14:42:37.747001 14457 net.cpp:155] Setting up data_layer
I1005 14:42:37.747041 14457 net.cpp:163] Top shape: 20000 61 1 1 (1220000)
I1005 14:42:37.747046 14457 net.cpp:163] Top shape: 20000 (20000)
I1005 14:42:37.747052 14457 layer_factory.hpp:76] Creating layer hidden_sum_layer
I1005 14:42:37.747063 14457 net.cpp:110] Creating Layer hidden_sum_layer
I1005 14:42:37.747068 14457 net.cpp:477] hidden_sum_layer <- data_blob
I1005 14:42:37.747087 14457 net.cpp:433] hidden_sum_layer -> hidden_sum_blob
I1005 14:42:37.747460 14457 net.cpp:155] Setting up hidden_sum_layer
I1005 14:42:37.747467 14457 net.cpp:163] Top shape: 20000 10 (200000)
I1005 14:42:37.747489 14457 layer_factory.hpp:76] Creating layer hidden_act_layer
I1005 14:42:37.747509 14457 net.cpp:110] Creating Layer hidden_act_layer
I1005 14:42:37.747510 14457 net.cpp:477] hidden_act_layer <- hidden_sum_blob
I1005 14:42:37.747514 14457 net.cpp:433] hidden_act_layer -> hidden_act_blob
I1005 14:42:40.962313 14457 net.cpp:155] Setting up hidden_act_layer
I1005 14:42:40.962334 14457 net.cpp:163] Top shape: 20000 10 (200000)
I1005 14:42:40.962339 14457 layer_factory.hpp:76] Creating layer output_sum_layer
I1005 14:42:40.962349 14457 net.cpp:110] Creating Layer output_sum_layer
I1005 14:42:40.962352 14457 net.cpp:477] output_sum_layer <- hidden_act_blob
I1005 14:42:40.962357 14457 net.cpp:433] output_sum_layer -> output_sum_blob
I1005 14:42:40.962435 14457 net.cpp:155] Setting up output_sum_layer
I1005 14:42:40.962440 14457 net.cpp:163] Top shape: 20000 1 (20000)
I1005 14:42:40.962445 14457 layer_factory.hpp:76] Creating layer output_act_layer
I1005 14:42:40.962451 14457 net.cpp:110] Creating Layer output_act_layer
I1005 14:42:40.962453 14457 net.cpp:477] output_act_layer <- output_sum_blob
I1005 14:42:40.962455 14457 net.cpp:433] output_act_layer -> output_act_blob
I1005 14:42:40.962517 14457 net.cpp:155] Setting up output_act_layer
I1005 14:42:40.962520 14457 net.cpp:163] Top shape: 20000 1 (20000)
I1005 14:42:40.962522 14457 layer_factory.hpp:76] Creating layer error_layer
I1005 14:42:40.962527 14457 net.cpp:110] Creating Layer error_layer
I1005 14:42:40.962528 14457 net.cpp:477] error_layer <- output_act_blob
I1005 14:42:40.962546 14457 net.cpp:477] error_layer <- label_blob
I1005 14:42:40.962550 14457 net.cpp:433] error_layer -> error_blob
I1005 14:42:40.962574 14457 net.cpp:155] Setting up error_layer
…
