…
I1008 20:06:03.147212  3222 solver.cpp:97] Creating training net from net file: inv_lr/model2_part2.prototxt
I1008 20:06:03.147378  3222 net.cpp:339] The NetState phase (0) differed from the phase (1) specified by a rule in layer data_layer
I1008 20:06:03.147425  3222 net.cpp:50] Initializing net from parameters: 
name: "inv_lr/model2_part2.prototxt"
state {
  phase: TRAIN
}
layer {
  name: "data_layer"
  type: "Data"
  top: "data_blob"
  top: "label_blob"
  include {
    phase: TRAIN
  }
  data_param {
    source: "lmdb/SCOREDATA.vina.balanced.part2.train"
    batch_size: 40000
    backend: LMDB
    prefetch: 8
  }
}
layer {
  name: "hidden_sum_layer"
  type: "InnerProduct"
  bottom: "data_blob"
  top: "hidden_sum_blob"
  inner_product_param {
    num_output: 10
    weight_filler {
      type: "xavier"
    }
    bias_filler {
      type: "constant"
    }
  }
}
layer {
  name: "hidden_act_layer"
  type: "Sigmoid"
  bottom: "hidden_sum_blob"
  top: "hidden_act_blob"
}
layer {
  name: "output_sum_layer"
  type: "InnerProduct"
  bottom: "hidden_act_blob"
  top: "output_sum_blob"
  inner_product_param {
    num_output: 1
    weight_filler {
      type: "xavier"
    }
    bias_filler {
      type: "constant"
    }
  }
}
layer {
  name: "output_act_layer"
  type: "Sigmoid"
  bottom: "output_sum_blob"
  top: "output_act_blob"
}
layer {
  name: "error_layer"
  type: "EuclideanLoss"
  bottom: "output_act_blob"
  bottom: "label_blob"
  top: "error_blob"
}
I1008 20:06:03.147500  3222 layer_factory.hpp:76] Creating layer data_layer
I1008 20:06:03.173943  3222 net.cpp:110] Creating Layer data_layer
I1008 20:06:03.173962  3222 net.cpp:433] data_layer -> data_blob
I1008 20:06:03.173985  3222 net.cpp:433] data_layer -> label_blob
I1008 20:06:03.174563  3226 db_lmdb.cpp:23] Opened lmdb lmdb/SCOREDATA.vina.balanced.part2.train
I1008 20:06:03.862995  3222 data_layer.cpp:45] output data size: 40000,61,1,1
I1008 20:06:03.873431  3222 net.cpp:155] Setting up data_layer
I1008 20:06:03.873476  3222 net.cpp:163] Top shape: 40000 61 1 1 (2440000)
I1008 20:06:03.873492  3222 net.cpp:163] Top shape: 40000 (40000)
I1008 20:06:03.873498  3222 layer_factory.hpp:76] Creating layer hidden_sum_layer
I1008 20:06:03.873520  3222 net.cpp:110] Creating Layer hidden_sum_layer
I1008 20:06:03.873523  3222 net.cpp:477] hidden_sum_layer <- data_blob
I1008 20:06:03.873534  3222 net.cpp:433] hidden_sum_layer -> hidden_sum_blob
I1008 20:06:03.873914  3222 net.cpp:155] Setting up hidden_sum_layer
I1008 20:06:03.873921  3222 net.cpp:163] Top shape: 40000 10 (400000)
I1008 20:06:03.873944  3222 layer_factory.hpp:76] Creating layer hidden_act_layer
I1008 20:06:03.873963  3222 net.cpp:110] Creating Layer hidden_act_layer
I1008 20:06:03.873967  3222 net.cpp:477] hidden_act_layer <- hidden_sum_blob
I1008 20:06:03.873981  3222 net.cpp:433] hidden_act_layer -> hidden_act_blob
I1008 20:06:07.096524  3222 net.cpp:155] Setting up hidden_act_layer
I1008 20:06:07.096552  3222 net.cpp:163] Top shape: 40000 10 (400000)
I1008 20:06:07.096559  3222 layer_factory.hpp:76] Creating layer output_sum_layer
I1008 20:06:07.096582  3222 net.cpp:110] Creating Layer output_sum_layer
I1008 20:06:07.096588  3222 net.cpp:477] output_sum_layer <- hidden_act_blob
I1008 20:06:07.096598  3222 net.cpp:433] output_sum_layer -> output_sum_blob
I1008 20:06:07.096720  3222 net.cpp:155] Setting up output_sum_layer
I1008 20:06:07.096727  3222 net.cpp:163] Top shape: 40000 1 (40000)
I1008 20:06:07.096748  3222 layer_factory.hpp:76] Creating layer output_act_layer
I1008 20:06:07.096758  3222 net.cpp:110] Creating Layer output_act_layer
I1008 20:06:07.096763  3222 net.cpp:477] output_act_layer <- output_sum_blob
I1008 20:06:07.096768  3222 net.cpp:433] output_act_layer -> output_act_blob
I1008 20:06:07.096860  3222 net.cpp:155] Setting up output_act_layer
I1008 20:06:07.096876  3222 net.cpp:163] Top shape: 40000 1 (40000)
I1008 20:06:07.096881  3222 layer_factory.hpp:76] Creating layer error_layer
I1008 20:06:07.096899  3222 net.cpp:110] Creating Layer error_layer
I1008 20:06:07.096904  3222 net.cpp:477] error_layer <- output_act_blob
I1008 20:06:07.096907  3222 net.cpp:477] error_layer <- label_blob
I1008 20:06:07.096914  3222 net.cpp:433] error_layer -> error_blob
I1008 20:06:07.096941  3222 net.cpp:155] Setting up error_layer
…
I1008 20:06:07.097149  3222 solver.cpp:187] Creating test net (#0) specified by net file: inv_lr/model2_part2.prototxt
I1008 20:06:07.097167  3222 net.cpp:339] The NetState phase (1) differed from the phase (0) specified by a rule in layer data_layer
I1008 20:06:07.097203  3222 net.cpp:50] Initializing net from parameters: 
name: "inv_lr/model2_part2.prototxt"
state {
  phase: TEST
}
layer {
  name: "data_layer"
  type: "Data"
  top: "data_blob"
  top: "label_blob"
  include {
    phase: TEST
  }
  data_param {
    source: "lmdb/SCOREDATA.vina.balanced.part2.test"
    batch_size: 4000
    backend: LMDB
    prefetch: 8
  }
}
layer {
  name: "hidden_sum_layer"
  type: "InnerProduct"
  bottom: "data_blob"
  top: "hidden_sum_blob"
  inner_product_param {
    num_output: 10
    weight_filler {
      type: "xavier"
    }
    bias_filler {
      type: "constant"
    }
  }
}
layer {
  name: "hidden_act_layer"
  type: "Sigmoid"
  bottom: "hidden_sum_blob"
  top: "hidden_act_blob"
}
layer {
  name: "output_sum_layer"
  type: "InnerProduct"
  bottom: "hidden_act_blob"
  top: "output_sum_blob"
  inner_product_param {
    num_output: 1
    weight_filler {
      type: "xavier"
    }
    bias_filler {
      type: "constant"
    }
  }
}
layer {
  name: "output_act_layer"
  type: "Sigmoid"
  bottom: "output_sum_blob"
  top: "output_act_blob"
}
layer {
  name: "error_layer"
  type: "EuclideanLoss"
  bottom: "output_act_blob"
  bottom: "label_blob"
  top: "error_blob"
}
I1008 20:06:07.097234  3222 layer_factory.hpp:76] Creating layer data_layer
I1008 20:06:07.099572  3222 net.cpp:110] Creating Layer data_layer
I1008 20:06:07.099589  3222 net.cpp:433] data_layer -> data_blob
I1008 20:06:07.099596  3222 net.cpp:433] data_layer -> label_blob
I1008 20:06:07.100154  3228 db_lmdb.cpp:23] Opened lmdb lmdb/SCOREDATA.vina.balanced.part2.test
I1008 20:06:07.100224  3222 data_layer.cpp:45] output data size: 4000,61,1,1
I1008 20:06:07.102144  3222 net.cpp:155] Setting up data_layer
I1008 20:06:07.102159  3222 net.cpp:163] Top shape: 4000 61 1 1 (244000)
I1008 20:06:07.102164  3222 net.cpp:163] Top shape: 4000 (4000)
I1008 20:06:07.102169  3222 layer_factory.hpp:76] Creating layer hidden_sum_layer
I1008 20:06:07.102180  3222 net.cpp:110] Creating Layer hidden_sum_layer
I1008 20:06:07.102185  3222 net.cpp:477] hidden_sum_layer <- data_blob
I1008 20:06:07.102190  3222 net.cpp:433] hidden_sum_layer -> hidden_sum_blob
I1008 20:06:07.102316  3222 net.cpp:155] Setting up hidden_sum_layer
I1008 20:06:07.102324  3222 net.cpp:163] Top shape: 4000 10 (40000)
I1008 20:06:07.102335  3222 layer_factory.hpp:76] Creating layer hidden_act_layer
I1008 20:06:07.102346  3222 net.cpp:110] Creating Layer hidden_act_layer
I1008 20:06:07.102351  3222 net.cpp:477] hidden_act_layer <- hidden_sum_blob
I1008 20:06:07.102370  3222 net.cpp:433] hidden_act_layer -> hidden_act_blob
I1008 20:06:07.102576  3222 net.cpp:155] Setting up hidden_act_layer
I1008 20:06:07.102583  3222 net.cpp:163] Top shape: 4000 10 (40000)
I1008 20:06:07.102587  3222 layer_factory.hpp:76] Creating layer output_sum_layer
I1008 20:06:07.102594  3222 net.cpp:110] Creating Layer output_sum_layer
I1008 20:06:07.102598  3222 net.cpp:477] output_sum_layer <- hidden_act_blob
I1008 20:06:07.102604  3222 net.cpp:433] output_sum_layer -> output_sum_blob
I1008 20:06:07.102673  3222 net.cpp:155] Setting up output_sum_layer
I1008 20:06:07.102679  3222 net.cpp:163] Top shape: 4000 1 (4000)
I1008 20:06:07.102689  3222 layer_factory.hpp:76] Creating layer output_act_layer
I1008 20:06:07.102694  3222 net.cpp:110] Creating Layer output_act_layer
I1008 20:06:07.102700  3222 net.cpp:477] output_act_layer <- output_sum_blob
I1008 20:06:07.102705  3222 net.cpp:433] output_act_layer -> output_act_blob
I1008 20:06:07.102762  3222 net.cpp:155] Setting up output_act_layer
I1008 20:06:07.102769  3222 net.cpp:163] Top shape: 4000 1 (4000)
I1008 20:06:07.102773  3222 layer_factory.hpp:76] Creating layer error_layer
I1008 20:06:07.102779  3222 net.cpp:110] Creating Layer error_layer
I1008 20:06:07.102783  3222 net.cpp:477] error_layer <- output_act_blob
I1008 20:06:07.102787  3222 net.cpp:477] error_layer <- label_blob
I1008 20:06:07.102793  3222 net.cpp:433] error_layer -> error_blob
I1008 20:06:07.102820  3222 net.cpp:155] Setting up error_layer
…
