…
I1006 18:20:02.699687 26002 solver.cpp:97] Creating training net from net file: full_batch_ce/model2_part2.prototxt
I1006 18:20:02.699859 26002 net.cpp:339] The NetState phase (0) differed from the phase (1) specified by a rule in layer data_layer
I1006 18:20:02.699894 26002 net.cpp:50] Initializing net from parameters: 
name: "full_batch_ce/model2_part2.prototxt"
state {
  phase: TRAIN
}
layer {
  name: "data_layer"
  type: "Data"
  top: "data_blob"
  top: "label_blob"
  include {
    phase: TRAIN
  }
  data_param {
    source: "lmdb/SCOREDATA.vina.balanced.part2.train"
    batch_size: 40000
    backend: LMDB
    prefetch: 8
  }
}
layer {
  name: "hidden_sum_layer"
  type: "InnerProduct"
  bottom: "data_blob"
  top: "hidden_sum_blob"
  inner_product_param {
    num_output: 10
    weight_filler {
      type: "xavier"
    }
    bias_filler {
      type: "constant"
    }
  }
}
layer {
  name: "hidden_act_layer"
  type: "Sigmoid"
  bottom: "hidden_sum_blob"
  top: "hidden_act_blob"
}
layer {
  name: "output_sum_layer"
  type: "InnerProduct"
  bottom: "hidden_act_blob"
  top: "output_sum_blob"
  inner_product_param {
    num_output: 1
    weight_filler {
      type: "xavier"
    }
    bias_filler {
      type: "constant"
    }
  }
}
layer {
  name: "error_layer"
  type: "SigmoidCrossEntropyLoss"
  bottom: "output_sum_blob"
  bottom: "label_blob"
  top: "error_blob"
}
I1006 18:20:02.699933 26002 layer_factory.hpp:76] Creating layer data_layer
I1006 18:20:02.726485 26002 net.cpp:110] Creating Layer data_layer
I1006 18:20:02.726516 26002 net.cpp:433] data_layer -> data_blob
I1006 18:20:02.726548 26002 net.cpp:433] data_layer -> label_blob
I1006 18:20:02.727121 26006 db_lmdb.cpp:23] Opened lmdb lmdb/SCOREDATA.vina.balanced.part2.train
I1006 18:20:03.413830 26002 data_layer.cpp:45] output data size: 40000,61,1,1
I1006 18:20:03.424341 26002 net.cpp:155] Setting up data_layer
I1006 18:20:03.424384 26002 net.cpp:163] Top shape: 40000 61 1 1 (2440000)
I1006 18:20:03.424389 26002 net.cpp:163] Top shape: 40000 (40000)
I1006 18:20:03.424406 26002 layer_factory.hpp:76] Creating layer hidden_sum_layer
I1006 18:20:03.424417 26002 net.cpp:110] Creating Layer hidden_sum_layer
I1006 18:20:03.424422 26002 net.cpp:477] hidden_sum_layer <- data_blob
I1006 18:20:03.424430 26002 net.cpp:433] hidden_sum_layer -> hidden_sum_blob
I1006 18:20:03.424828 26002 net.cpp:155] Setting up hidden_sum_layer
I1006 18:20:03.424834 26002 net.cpp:163] Top shape: 40000 10 (400000)
I1006 18:20:03.424856 26002 layer_factory.hpp:76] Creating layer hidden_act_layer
I1006 18:20:03.424873 26002 net.cpp:110] Creating Layer hidden_act_layer
I1006 18:20:03.424876 26002 net.cpp:477] hidden_act_layer <- hidden_sum_blob
I1006 18:20:03.424880 26002 net.cpp:433] hidden_act_layer -> hidden_act_blob
I1006 18:20:06.663790 26002 net.cpp:155] Setting up hidden_act_layer
I1006 18:20:06.663826 26002 net.cpp:163] Top shape: 40000 10 (400000)
I1006 18:20:06.663832 26002 layer_factory.hpp:76] Creating layer output_sum_layer
I1006 18:20:06.663844 26002 net.cpp:110] Creating Layer output_sum_layer
I1006 18:20:06.663848 26002 net.cpp:477] output_sum_layer <- hidden_act_blob
I1006 18:20:06.663866 26002 net.cpp:433] output_sum_layer -> output_sum_blob
I1006 18:20:06.664005 26002 net.cpp:155] Setting up output_sum_layer
I1006 18:20:06.664011 26002 net.cpp:163] Top shape: 40000 1 (40000)
I1006 18:20:06.664027 26002 layer_factory.hpp:76] Creating layer error_layer
I1006 18:20:06.664043 26002 net.cpp:110] Creating Layer error_layer
I1006 18:20:06.664047 26002 net.cpp:477] error_layer <- output_sum_blob
I1006 18:20:06.664048 26002 net.cpp:477] error_layer <- label_blob
I1006 18:20:06.664062 26002 net.cpp:433] error_layer -> error_blob
I1006 18:20:06.664088 26002 net.cpp:155] Setting up error_layer
…
I1006 18:20:06.664341 26002 solver.cpp:187] Creating test net (#0) specified by net file: full_batch_ce/model2_part2.prototxt
I1006 18:20:06.664363 26002 net.cpp:339] The NetState phase (1) differed from the phase (0) specified by a rule in layer data_layer
I1006 18:20:06.664413 26002 net.cpp:50] Initializing net from parameters: 
name: "full_batch_ce/model2_part2.prototxt"
state {
  phase: TEST
}
layer {
  name: "data_layer"
  type: "Data"
  top: "data_blob"
  top: "label_blob"
  include {
    phase: TEST
  }
  data_param {
    source: "lmdb/SCOREDATA.vina.balanced.part2.test"
    batch_size: 4000
    backend: LMDB
    prefetch: 8
  }
}
layer {
  name: "hidden_sum_layer"
  type: "InnerProduct"
  bottom: "data_blob"
  top: "hidden_sum_blob"
  inner_product_param {
    num_output: 10
    weight_filler {
      type: "xavier"
    }
    bias_filler {
      type: "constant"
    }
  }
}
layer {
  name: "hidden_act_layer"
  type: "Sigmoid"
  bottom: "hidden_sum_blob"
  top: "hidden_act_blob"
}
layer {
  name: "output_sum_layer"
  type: "InnerProduct"
  bottom: "hidden_act_blob"
  top: "output_sum_blob"
  inner_product_param {
    num_output: 1
    weight_filler {
      type: "xavier"
    }
    bias_filler {
      type: "constant"
    }
  }
}
layer {
  name: "error_layer"
  type: "SigmoidCrossEntropyLoss"
  bottom: "output_sum_blob"
  bottom: "label_blob"
  top: "error_blob"
}
I1006 18:20:06.664453 26002 layer_factory.hpp:76] Creating layer data_layer
I1006 18:20:06.666733 26002 net.cpp:110] Creating Layer data_layer
I1006 18:20:06.666750 26002 net.cpp:433] data_layer -> data_blob
I1006 18:20:06.666765 26002 net.cpp:433] data_layer -> label_blob
I1006 18:20:06.667321 26012 db_lmdb.cpp:23] Opened lmdb lmdb/SCOREDATA.vina.balanced.part2.test
I1006 18:20:06.667389 26002 data_layer.cpp:45] output data size: 4000,61,1,1
I1006 18:20:06.669301 26002 net.cpp:155] Setting up data_layer
I1006 18:20:06.669313 26002 net.cpp:163] Top shape: 4000 61 1 1 (244000)
I1006 18:20:06.669317 26002 net.cpp:163] Top shape: 4000 (4000)
I1006 18:20:06.669320 26002 layer_factory.hpp:76] Creating layer hidden_sum_layer
I1006 18:20:06.669327 26002 net.cpp:110] Creating Layer hidden_sum_layer
I1006 18:20:06.669330 26002 net.cpp:477] hidden_sum_layer <- data_blob
I1006 18:20:06.669334 26002 net.cpp:433] hidden_sum_layer -> hidden_sum_blob
I1006 18:20:06.669441 26002 net.cpp:155] Setting up hidden_sum_layer
I1006 18:20:06.669447 26002 net.cpp:163] Top shape: 4000 10 (40000)
I1006 18:20:06.669456 26002 layer_factory.hpp:76] Creating layer hidden_act_layer
I1006 18:20:06.669459 26002 net.cpp:110] Creating Layer hidden_act_layer
I1006 18:20:06.669461 26002 net.cpp:477] hidden_act_layer <- hidden_sum_blob
I1006 18:20:06.669464 26002 net.cpp:433] hidden_act_layer -> hidden_act_blob
I1006 18:20:06.669538 26002 net.cpp:155] Setting up hidden_act_layer
I1006 18:20:06.669543 26002 net.cpp:163] Top shape: 4000 10 (40000)
I1006 18:20:06.669544 26002 layer_factory.hpp:76] Creating layer output_sum_layer
I1006 18:20:06.669548 26002 net.cpp:110] Creating Layer output_sum_layer
I1006 18:20:06.669550 26002 net.cpp:477] output_sum_layer <- hidden_act_blob
I1006 18:20:06.669553 26002 net.cpp:433] output_sum_layer -> output_sum_blob
I1006 18:20:06.669613 26002 net.cpp:155] Setting up output_sum_layer
I1006 18:20:06.669617 26002 net.cpp:163] Top shape: 4000 1 (4000)
I1006 18:20:06.669633 26002 layer_factory.hpp:76] Creating layer error_layer
I1006 18:20:06.669638 26002 net.cpp:110] Creating Layer error_layer
I1006 18:20:06.669641 26002 net.cpp:477] error_layer <- output_sum_blob
I1006 18:20:06.669643 26002 net.cpp:477] error_layer <- label_blob
I1006 18:20:06.669646 26002 net.cpp:433] error_layer -> error_blob
I1006 18:20:06.669669 26002 net.cpp:155] Setting up error_layer
…
