…
lr_policy: "fixed"
momentum: 0.9
solver_mode: GPU
device_id: 0
net: "basic/model0_full.prototxt"
I1005 16:15:50.303131 15424 solver.cpp:97] Creating training net from net file: basic/model0_full.prototxt
I1005 16:15:50.303315 15424 net.cpp:50] Initializing net from parameters: 
name: "basic/model0_full.prototxt"
state {
  phase: TRAIN
}
layer {
  name: "data_layer"
  type: "Data"
  top: "data_blob"
  top: "label_blob"
  data_param {
    source: "lmdb/SCOREDATA.vina.balanced.full"
    batch_size: 20000
    backend: LMDB
    prefetch: 8
  }
}
layer {
  name: "hidden_sum_layer"
  type: "InnerProduct"
  bottom: "data_blob"
  top: "hidden_sum_blob"
  inner_product_param {
    num_output: 10
    weight_filler {
      type: "xavier"
    }
    bias_filler {
      type: "constant"
    }
  }
}
layer {
  name: "hidden_act_layer"
  type: "Sigmoid"
  bottom: "hidden_sum_blob"
  top: "hidden_act_blob"
}
layer {
  name: "output_sum_layer"
  type: "InnerProduct"
  bottom: "hidden_act_blob"
  top: "output_sum_blob"
  inner_product_param {
    num_output: 1
    weight_filler {
      type: "xavier"
    }
    bias_filler {
      type: "constant"
    }
  }
}
layer {
  name: "output_act_layer"
  type: "Sigmoid"
  bottom: "output_sum_blob"
  top: "output_act_blob"
}
layer {
  name: "error_layer"
  type: "EuclideanLoss"
  bottom: "output_act_blob"
  bottom: "label_blob"
  top: "error_blob"
}
I1005 16:15:50.303354 15424 layer_factory.hpp:76] Creating layer data_layer
I1005 16:15:50.316680 15424 net.cpp:110] Creating Layer data_layer
I1005 16:15:50.316711 15424 net.cpp:433] data_layer -> data_blob
I1005 16:15:50.316745 15424 net.cpp:433] data_layer -> label_blob
I1005 16:15:50.317319 15428 db_lmdb.cpp:23] Opened lmdb lmdb/SCOREDATA.vina.balanced.full
I1005 16:15:51.001112 15424 data_layer.cpp:45] output data size: 20000,61,1,1
I1005 16:15:51.006044 15424 net.cpp:155] Setting up data_layer
I1005 16:15:51.006085 15424 net.cpp:163] Top shape: 20000 61 1 1 (1220000)
I1005 16:15:51.006089 15424 net.cpp:163] Top shape: 20000 (20000)
I1005 16:15:51.006095 15424 layer_factory.hpp:76] Creating layer hidden_sum_layer
I1005 16:15:51.006119 15424 net.cpp:110] Creating Layer hidden_sum_layer
I1005 16:15:51.006121 15424 net.cpp:477] hidden_sum_layer <- data_blob
I1005 16:15:51.006131 15424 net.cpp:433] hidden_sum_layer -> hidden_sum_blob
I1005 16:15:51.006489 15424 net.cpp:155] Setting up hidden_sum_layer
I1005 16:15:51.006496 15424 net.cpp:163] Top shape: 20000 10 (200000)
I1005 16:15:51.006518 15424 layer_factory.hpp:76] Creating layer hidden_act_layer
I1005 16:15:51.006536 15424 net.cpp:110] Creating Layer hidden_act_layer
I1005 16:15:51.006538 15424 net.cpp:477] hidden_act_layer <- hidden_sum_blob
I1005 16:15:51.006541 15424 net.cpp:433] hidden_act_layer -> hidden_act_blob
I1005 16:15:54.218917 15424 net.cpp:155] Setting up hidden_act_layer
I1005 16:15:54.218950 15424 net.cpp:163] Top shape: 20000 10 (200000)
I1005 16:15:54.218955 15424 layer_factory.hpp:76] Creating layer output_sum_layer
I1005 16:15:54.218965 15424 net.cpp:110] Creating Layer output_sum_layer
I1005 16:15:54.218967 15424 net.cpp:477] output_sum_layer <- hidden_act_blob
I1005 16:15:54.218973 15424 net.cpp:433] output_sum_layer -> output_sum_blob
I1005 16:15:54.219063 15424 net.cpp:155] Setting up output_sum_layer
I1005 16:15:54.219069 15424 net.cpp:163] Top shape: 20000 1 (20000)
I1005 16:15:54.219086 15424 layer_factory.hpp:76] Creating layer output_act_layer
I1005 16:15:54.219091 15424 net.cpp:110] Creating Layer output_act_layer
I1005 16:15:54.219094 15424 net.cpp:477] output_act_layer <- output_sum_blob
I1005 16:15:54.219096 15424 net.cpp:433] output_act_layer -> output_act_blob
I1005 16:15:54.219158 15424 net.cpp:155] Setting up output_act_layer
I1005 16:15:54.219162 15424 net.cpp:163] Top shape: 20000 1 (20000)
I1005 16:15:54.219164 15424 layer_factory.hpp:76] Creating layer error_layer
I1005 16:15:54.219180 15424 net.cpp:110] Creating Layer error_layer
I1005 16:15:54.219182 15424 net.cpp:477] error_layer <- output_act_blob
I1005 16:15:54.219200 15424 net.cpp:477] error_layer <- label_blob
I1005 16:15:54.219208 15424 net.cpp:433] error_layer -> error_blob
I1005 16:15:54.219238 15424 net.cpp:155] Setting up error_layer
…
I1005 16:20:06.975041 15435 solver.cpp:187] Creating test net (#0) specified by net file: basic/model0_part9.prototxt
I1005 16:20:06.975055 15435 net.cpp:339] The NetState phase (1) differed from the phase (0) specified by a rule in layer data_layer
I1005 16:20:06.975090 15435 net.cpp:50] Initializing net from parameters: 
name: "basic/model0_part9.prototxt"
state {
  phase: TEST
}
layer {
  name: "data_layer"
  type: "Data"
  top: "data_blob"
  top: "label_blob"
  include {
    phase: TEST
  }
  data_param {
    source: "lmdb/SCOREDATA.vina.balanced.part9.test"
    batch_size: 2000
    backend: LMDB
    prefetch: 8
  }
}
layer {
  name: "hidden_sum_layer"
  type: "InnerProduct"
  bottom: "data_blob"
  top: "hidden_sum_blob"
  inner_product_param {
    num_output: 10
    weight_filler {
      type: "xavier"
    }
    bias_filler {
      type: "constant"
    }
  }
}
layer {
  name: "hidden_act_layer"
  type: "Sigmoid"
  bottom: "hidden_sum_blob"
  top: "hidden_act_blob"
}
layer {
  name: "output_sum_layer"
  type: "InnerProduct"
  bottom: "hidden_act_blob"
  top: "output_sum_blob"
  inner_product_param {
    num_output: 1
    weight_filler {
      type: "xavier"
    }
    bias_filler {
      type: "constant"
    }
  }
}
layer {
  name: "output_act_layer"
  type: "Sigmoid"
  bottom: "output_sum_blob"
  top: "output_act_blob"
}
layer {
  name: "error_layer"
  type: "EuclideanLoss"
  bottom: "output_act_blob"
  bottom: "label_blob"
  top: "error_blob"
}
I1005 16:20:06.975111 15435 layer_factory.hpp:76] Creating layer data_layer
I1005 16:20:06.976305 15435 net.cpp:110] Creating Layer data_layer
I1005 16:20:06.976320 15435 net.cpp:433] data_layer -> data_blob
I1005 16:20:06.976325 15435 net.cpp:433] data_layer -> label_blob
I1005 16:20:06.976894 15441 db_lmdb.cpp:23] Opened lmdb lmdb/SCOREDATA.vina.balanced.part9.test
I1005 16:20:06.976964 15435 data_layer.cpp:45] output data size: 2000,61,1,1
I1005 16:20:06.978325 15435 net.cpp:155] Setting up data_layer
I1005 16:20:06.978335 15435 net.cpp:163] Top shape: 2000 61 1 1 (122000)
I1005 16:20:06.978338 15435 net.cpp:163] Top shape: 2000 (2000)
I1005 16:20:06.978343 15435 layer_factory.hpp:76] Creating layer hidden_sum_layer
I1005 16:20:06.978354 15435 net.cpp:110] Creating Layer hidden_sum_layer
I1005 16:20:06.978358 15435 net.cpp:477] hidden_sum_layer <- data_blob
I1005 16:20:06.978364 15435 net.cpp:433] hidden_sum_layer -> hidden_sum_blob
I1005 16:20:06.978483 15435 net.cpp:155] Setting up hidden_sum_layer
I1005 16:20:06.978489 15435 net.cpp:163] Top shape: 2000 10 (20000)
I1005 16:20:06.978498 15435 layer_factory.hpp:76] Creating layer hidden_act_layer
I1005 16:20:06.978505 15435 net.cpp:110] Creating Layer hidden_act_layer
I1005 16:20:06.978508 15435 net.cpp:477] hidden_act_layer <- hidden_sum_blob
I1005 16:20:06.978529 15435 net.cpp:433] hidden_act_layer -> hidden_act_blob
I1005 16:20:06.978705 15435 net.cpp:155] Setting up hidden_act_layer
I1005 16:20:06.978713 15435 net.cpp:163] Top shape: 2000 10 (20000)
I1005 16:20:06.978718 15435 layer_factory.hpp:76] Creating layer output_sum_layer
I1005 16:20:06.978724 15435 net.cpp:110] Creating Layer output_sum_layer
I1005 16:20:06.978727 15435 net.cpp:477] output_sum_layer <- hidden_act_blob
I1005 16:20:06.978734 15435 net.cpp:433] output_sum_layer -> output_sum_blob
I1005 16:20:06.978799 15435 net.cpp:155] Setting up output_sum_layer
I1005 16:20:06.978806 15435 net.cpp:163] Top shape: 2000 1 (2000)
I1005 16:20:06.978812 15435 layer_factory.hpp:76] Creating layer output_act_layer
I1005 16:20:06.978818 15435 net.cpp:110] Creating Layer output_act_layer
I1005 16:20:06.978823 15435 net.cpp:477] output_act_layer <- output_sum_blob
I1005 16:20:06.978829 15435 net.cpp:433] output_act_layer -> output_act_blob
I1005 16:20:06.978885 15435 net.cpp:155] Setting up output_act_layer
I1005 16:20:06.978890 15435 net.cpp:163] Top shape: 2000 1 (2000)
I1005 16:20:06.978893 15435 layer_factory.hpp:76] Creating layer error_layer
I1005 16:20:06.978899 15435 net.cpp:110] Creating Layer error_layer
I1005 16:20:06.978902 15435 net.cpp:477] error_layer <- output_act_blob
I1005 16:20:06.978906 15435 net.cpp:477] error_layer <- label_blob
I1005 16:20:06.978910 15435 net.cpp:433] error_layer -> error_blob
I1005 16:20:06.978936 15435 net.cpp:155] Setting up error_layer
…
