…
lr_policy: "fixed"
momentum: 0.9
solver_mode: GPU
device_id: 0
net: "basic/model0_full.prototxt"
I1005 15:32:17.151829 14666 solver.cpp:97] Creating training net from net file: basic/model0_full.prototxt
I1005 15:32:17.152022 14666 net.cpp:50] Initializing net from parameters: 
name: "basic/model0_full.prototxt"
state {
  phase: TRAIN
}
layer {
  name: "data_layer"
  type: "Data"
  top: "data_blob"
  top: "label_blob"
  data_param {
    source: "lmdb/SCOREDATA.vina.balanced.full"
    batch_size: 20000
    backend: LMDB
    prefetch: 8
  }
}
layer {
  name: "hidden_sum_layer"
  type: "InnerProduct"
  bottom: "data_blob"
  top: "hidden_sum_blob"
  inner_product_param {
    num_output: 10
    weight_filler {
      type: "xavier"
    }
    bias_filler {
      type: "constant"
    }
  }
}
layer {
  name: "hidden_act_layer"
  type: "Sigmoid"
  bottom: "hidden_sum_blob"
  top: "hidden_act_blob"
}
layer {
  name: "output_sum_layer"
  type: "InnerProduct"
  bottom: "hidden_act_blob"
  top: "output_sum_blob"
  inner_product_param {
    num_output: 1
    weight_filler {
      type: "xavier"
    }
    bias_filler {
      type: "constant"
    }
  }
}
layer {
  name: "output_act_layer"
  type: "Sigmoid"
  bottom: "output_sum_blob"
  top: "output_act_blob"
}
layer {
  name: "error_layer"
  type: "EuclideanLoss"
  bottom: "output_act_blob"
  bottom: "label_blob"
  top: "error_blob"
}
I1005 15:32:17.152061 14666 layer_factory.hpp:76] Creating layer data_layer
I1005 15:32:17.165782 14666 net.cpp:110] Creating Layer data_layer
I1005 15:32:17.165812 14666 net.cpp:433] data_layer -> data_blob
I1005 15:32:17.165832 14666 net.cpp:433] data_layer -> label_blob
I1005 15:32:17.166451 14670 db_lmdb.cpp:23] Opened lmdb lmdb/SCOREDATA.vina.balanced.full
I1005 15:32:17.853086 14666 data_layer.cpp:45] output data size: 20000,61,1,1
I1005 15:32:17.858265 14666 net.cpp:155] Setting up data_layer
I1005 15:32:17.858307 14666 net.cpp:163] Top shape: 20000 61 1 1 (1220000)
I1005 15:32:17.858311 14666 net.cpp:163] Top shape: 20000 (20000)
I1005 15:32:17.858328 14666 layer_factory.hpp:76] Creating layer hidden_sum_layer
I1005 15:32:17.858340 14666 net.cpp:110] Creating Layer hidden_sum_layer
I1005 15:32:17.858343 14666 net.cpp:477] hidden_sum_layer <- data_blob
I1005 15:32:17.858353 14666 net.cpp:433] hidden_sum_layer -> hidden_sum_blob
I1005 15:32:17.858722 14666 net.cpp:155] Setting up hidden_sum_layer
I1005 15:32:17.858731 14666 net.cpp:163] Top shape: 20000 10 (200000)
I1005 15:32:17.858752 14666 layer_factory.hpp:76] Creating layer hidden_act_layer
I1005 15:32:17.858768 14666 net.cpp:110] Creating Layer hidden_act_layer
I1005 15:32:17.858770 14666 net.cpp:477] hidden_act_layer <- hidden_sum_blob
I1005 15:32:17.858773 14666 net.cpp:433] hidden_act_layer -> hidden_act_blob
I1005 15:32:21.103626 14666 net.cpp:155] Setting up hidden_act_layer
I1005 15:32:21.103660 14666 net.cpp:163] Top shape: 20000 10 (200000)
I1005 15:32:21.103667 14666 layer_factory.hpp:76] Creating layer output_sum_layer
I1005 15:32:21.103680 14666 net.cpp:110] Creating Layer output_sum_layer
I1005 15:32:21.103683 14666 net.cpp:477] output_sum_layer <- hidden_act_blob
I1005 15:32:21.103690 14666 net.cpp:433] output_sum_layer -> output_sum_blob
I1005 15:32:21.103793 14666 net.cpp:155] Setting up output_sum_layer
I1005 15:32:21.103798 14666 net.cpp:163] Top shape: 20000 1 (20000)
I1005 15:32:21.103816 14666 layer_factory.hpp:76] Creating layer output_act_layer
I1005 15:32:21.103821 14666 net.cpp:110] Creating Layer output_act_layer
I1005 15:32:21.103823 14666 net.cpp:477] output_act_layer <- output_sum_blob
I1005 15:32:21.103826 14666 net.cpp:433] output_act_layer -> output_act_blob
I1005 15:32:21.103890 14666 net.cpp:155] Setting up output_act_layer
I1005 15:32:21.103894 14666 net.cpp:163] Top shape: 20000 1 (20000)
I1005 15:32:21.103896 14666 layer_factory.hpp:76] Creating layer error_layer
I1005 15:32:21.103911 14666 net.cpp:110] Creating Layer error_layer
I1005 15:32:21.103914 14666 net.cpp:477] error_layer <- output_act_blob
I1005 15:32:21.103935 14666 net.cpp:477] error_layer <- label_blob
I1005 15:32:21.103940 14666 net.cpp:433] error_layer -> error_blob
I1005 15:32:21.103973 14666 net.cpp:155] Setting up error_layer
…
I1005 15:36:32.818595 14676 solver.cpp:187] Creating test net (#0) specified by net file: basic/model0_part9.prototxt
I1005 15:36:32.818608 14676 net.cpp:339] The NetState phase (1) differed from the phase (0) specified by a rule in layer data_layer
I1005 15:36:32.818646 14676 net.cpp:50] Initializing net from parameters: 
name: "basic/model0_part9.prototxt"
state {
  phase: TEST
}
layer {
  name: "data_layer"
  type: "Data"
  top: "data_blob"
  top: "label_blob"
  include {
    phase: TEST
  }
  data_param {
    source: "lmdb/SCOREDATA.vina.balanced.part9.test"
    batch_size: 2000
    backend: LMDB
    prefetch: 8
  }
}
layer {
  name: "hidden_sum_layer"
  type: "InnerProduct"
  bottom: "data_blob"
  top: "hidden_sum_blob"
  inner_product_param {
    num_output: 10
    weight_filler {
      type: "xavier"
    }
    bias_filler {
      type: "constant"
    }
  }
}
layer {
  name: "hidden_act_layer"
  type: "Sigmoid"
  bottom: "hidden_sum_blob"
  top: "hidden_act_blob"
}
layer {
  name: "output_sum_layer"
  type: "InnerProduct"
  bottom: "hidden_act_blob"
  top: "output_sum_blob"
  inner_product_param {
    num_output: 1
    weight_filler {
      type: "xavier"
    }
    bias_filler {
      type: "constant"
    }
  }
}
layer {
  name: "output_act_layer"
  type: "Sigmoid"
  bottom: "output_sum_blob"
  top: "output_act_blob"
}
layer {
  name: "error_layer"
  type: "EuclideanLoss"
  bottom: "output_act_blob"
  bottom: "label_blob"
  top: "error_blob"
}
I1005 15:36:32.818696 14676 layer_factory.hpp:76] Creating layer data_layer
I1005 15:36:32.819849 14676 net.cpp:110] Creating Layer data_layer
I1005 15:36:32.819852 14676 net.cpp:433] data_layer -> data_blob
I1005 15:36:32.819857 14676 net.cpp:433] data_layer -> label_blob
I1005 15:36:32.820435 14682 db_lmdb.cpp:23] Opened lmdb lmdb/SCOREDATA.vina.balanced.part9.test
I1005 15:36:32.820523 14676 data_layer.cpp:45] output data size: 2000,61,1,1
I1005 15:36:32.821913 14676 net.cpp:155] Setting up data_layer
I1005 15:36:32.821933 14676 net.cpp:163] Top shape: 2000 61 1 1 (122000)
I1005 15:36:32.821936 14676 net.cpp:163] Top shape: 2000 (2000)
I1005 15:36:32.821938 14676 layer_factory.hpp:76] Creating layer hidden_sum_layer
I1005 15:36:32.821944 14676 net.cpp:110] Creating Layer hidden_sum_layer
I1005 15:36:32.821956 14676 net.cpp:477] hidden_sum_layer <- data_blob
I1005 15:36:32.821960 14676 net.cpp:433] hidden_sum_layer -> hidden_sum_blob
I1005 15:36:32.822087 14676 net.cpp:155] Setting up hidden_sum_layer
I1005 15:36:32.822091 14676 net.cpp:163] Top shape: 2000 10 (20000)
I1005 15:36:32.822098 14676 layer_factory.hpp:76] Creating layer hidden_act_layer
I1005 15:36:32.822111 14676 net.cpp:110] Creating Layer hidden_act_layer
I1005 15:36:32.822113 14676 net.cpp:477] hidden_act_layer <- hidden_sum_blob
I1005 15:36:32.822127 14676 net.cpp:433] hidden_act_layer -> hidden_act_blob
I1005 15:36:32.822350 14676 net.cpp:155] Setting up hidden_act_layer
I1005 15:36:32.822356 14676 net.cpp:163] Top shape: 2000 10 (20000)
I1005 15:36:32.822358 14676 layer_factory.hpp:76] Creating layer output_sum_layer
I1005 15:36:32.822362 14676 net.cpp:110] Creating Layer output_sum_layer
I1005 15:36:32.822376 14676 net.cpp:477] output_sum_layer <- hidden_act_blob
I1005 15:36:32.822378 14676 net.cpp:433] output_sum_layer -> output_sum_blob
I1005 15:36:32.822443 14676 net.cpp:155] Setting up output_sum_layer
I1005 15:36:32.822448 14676 net.cpp:163] Top shape: 2000 1 (2000)
I1005 15:36:32.822453 14676 layer_factory.hpp:76] Creating layer output_act_layer
I1005 15:36:32.822465 14676 net.cpp:110] Creating Layer output_act_layer
I1005 15:36:32.822468 14676 net.cpp:477] output_act_layer <- output_sum_blob
I1005 15:36:32.822470 14676 net.cpp:433] output_act_layer -> output_act_blob
I1005 15:36:32.822523 14676 net.cpp:155] Setting up output_act_layer
I1005 15:36:32.822527 14676 net.cpp:163] Top shape: 2000 1 (2000)
I1005 15:36:32.822530 14676 layer_factory.hpp:76] Creating layer error_layer
I1005 15:36:32.822533 14676 net.cpp:110] Creating Layer error_layer
I1005 15:36:32.822546 14676 net.cpp:477] error_layer <- output_act_blob
I1005 15:36:32.822547 14676 net.cpp:477] error_layer <- label_blob
I1005 15:36:32.822551 14676 net.cpp:433] error_layer -> error_blob
I1005 15:36:32.822567 14676 net.cpp:155] Setting up error_layer
…
