I1006 18:18:25.977737 25828 caffe.cpp:184] Using GPUs 0
I1006 18:18:26.555382 25828 solver.cpp:54] Initializing solver from parameters: 
test_iter: 1
test_interval: 100
base_lr: 0.01
display: 100
max_iter: 1000
lr_policy: "fixed"
momentum: 0.9
solver_mode: GPU
device_id: 0
net: "full_batch_ce/model2_part2.prototxt"
I1006 18:18:26.555414 25828 solver.cpp:97] Creating training net from net file: full_batch_ce/model2_part2.prototxt
I1006 18:18:26.555572 25828 net.cpp:339] The NetState phase (0) differed from the phase (1) specified by a rule in layer data_layer
I1006 18:18:26.555618 25828 net.cpp:50] Initializing net from parameters: 
name: "full_batch_ce/model2_part2.prototxt"
state {
  phase: TRAIN
}
layer {
  name: "data_layer"
  type: "Data"
  top: "data_blob"
  top: "label_blob"
  include {
    phase: TRAIN
  }
  data_param {
    source: "lmdb/SCOREDATA.vina.balanced.part2.train"
    batch_size: 40000
    backend: LMDB
    prefetch: 8
  }
}
layer {
  name: "hidden_sum_layer"
  type: "InnerProduct"
  bottom: "data_blob"
  top: "hidden_sum_blob"
  inner_product_param {
    num_output: 10
    weight_filler {
      type: "xavier"
    }
    bias_filler {
      type: "constant"
    }
  }
}
layer {
  name: "hidden_act_layer"
  type: "Sigmoid"
  bottom: "hidden_sum_blob"
  top: "hidden_act_blob"
}
layer {
  name: "output_sum_layer"
  type: "InnerProduct"
  bottom: "hidden_act_blob"
  top: "output_sum_blob"
  inner_product_param {
    num_output: 1
    weight_filler {
      type: "xavier"
    }
    bias_filler {
      type: "constant"
    }
  }
}
layer {
  name: "error_layer"
  type: "SigmoidCrossEntropyLoss"
  bottom: "output_act_blob"
  bottom: "label_blob"
  top: "error_blob"
}
F1006 18:18:26.555658 25828 insert_splits.cpp:35] Unknown bottom blob 'output_act_blob' (layer 'error_layer', bottom index 0)
*** Check failure stack trace: ***
    @     0x7f71bed9adaa  (unknown)
    @     0x7f71bed9ace4  (unknown)
    @     0x7f71bed9a6e6  (unknown)
    @     0x7f71bed9d687  (unknown)
    @     0x7f71bf1f791e  caffe::InsertSplits()
    @     0x7f71bf232b0b  caffe::Net<>::Init()
    @     0x7f71bf2351a5  caffe::Net<>::Net()
    @     0x7f71bf1d038a  caffe::Solver<>::InitTrainNet()
    @     0x7f71bf1d14cc  caffe::Solver<>::Init()
    @     0x7f71bf1d17d9  caffe::Solver<>::Solver()
    @           0x412945  caffe::GetSolver<>()
    @           0x40b626  train()
    @           0x409471  main
    @     0x7f71bdabdec5  (unknown)
    @           0x409c0b  (unknown)
    @              (nil)  (unknown)
I1006 18:18:26.661809 25835 caffe.cpp:184] Using GPUs 0
I1006 18:18:27.221993 25835 solver.cpp:54] Initializing solver from parameters: 
test_iter: 1
test_interval: 100
base_lr: 0.01
display: 100
max_iter: 1000
lr_policy: "fixed"
momentum: 0.9
solver_mode: GPU
device_id: 0
net: "full_batch_ce/model2_part5.prototxt"
I1006 18:18:27.222024 25835 solver.cpp:97] Creating training net from net file: full_batch_ce/model2_part5.prototxt
I1006 18:18:27.222179 25835 net.cpp:339] The NetState phase (0) differed from the phase (1) specified by a rule in layer data_layer
I1006 18:18:27.222223 25835 net.cpp:50] Initializing net from parameters: 
name: "full_batch_ce/model2_part5.prototxt"
state {
  phase: TRAIN
}
layer {
  name: "data_layer"
  type: "Data"
  top: "data_blob"
  top: "label_blob"
  include {
    phase: TRAIN
  }
  data_param {
    source: "lmdb/SCOREDATA.vina.balanced.part5.train"
    batch_size: 40000
    backend: LMDB
    prefetch: 8
  }
}
layer {
  name: "hidden_sum_layer"
  type: "InnerProduct"
  bottom: "data_blob"
  top: "hidden_sum_blob"
  inner_product_param {
    num_output: 10
    weight_filler {
      type: "xavier"
    }
    bias_filler {
      type: "constant"
    }
  }
}
layer {
  name: "hidden_act_layer"
  type: "Sigmoid"
  bottom: "hidden_sum_blob"
  top: "hidden_act_blob"
}
layer {
  name: "output_sum_layer"
  type: "InnerProduct"
  bottom: "hidden_act_blob"
  top: "output_sum_blob"
  inner_product_param {
    num_output: 1
    weight_filler {
      type: "xavier"
    }
    bias_filler {
      type: "constant"
    }
  }
}
layer {
  name: "error_layer"
  type: "SigmoidCrossEntropyLoss"
  bottom: "output_act_blob"
  bottom: "label_blob"
  top: "error_blob"
}
F1006 18:18:27.222260 25835 insert_splits.cpp:35] Unknown bottom blob 'output_act_blob' (layer 'error_layer', bottom index 0)
*** Check failure stack trace: ***
    @     0x7f1e9843ddaa  (unknown)
    @     0x7f1e9843dce4  (unknown)
    @     0x7f1e9843d6e6  (unknown)
    @     0x7f1e98440687  (unknown)
    @     0x7f1e9889a91e  caffe::InsertSplits()
    @     0x7f1e988d5b0b  caffe::Net<>::Init()
    @     0x7f1e988d81a5  caffe::Net<>::Net()
    @     0x7f1e9887338a  caffe::Solver<>::InitTrainNet()
    @     0x7f1e988744cc  caffe::Solver<>::Init()
    @     0x7f1e988747d9  caffe::Solver<>::Solver()
    @           0x412945  caffe::GetSolver<>()
    @           0x40b626  train()
    @           0x409471  main
    @     0x7f1e97160ec5  (unknown)
    @           0x409c0b  (unknown)
    @              (nil)  (unknown)
I1006 18:18:27.329977 25846 caffe.cpp:184] Using GPUs 0
I1006 18:18:27.895437 25846 solver.cpp:54] Initializing solver from parameters: 
base_lr: 0.01
display: 100
max_iter: 1000
lr_policy: "fixed"
momentum: 0.9
solver_mode: GPU
device_id: 0
net: "full_batch_ce/model2_full.prototxt"
I1006 18:18:27.895467 25846 solver.cpp:97] Creating training net from net file: full_batch_ce/model2_full.prototxt
I1006 18:18:27.895612 25846 net.cpp:50] Initializing net from parameters: 
name: "full_batch_ce/model2_full.prototxt"
state {
  phase: TRAIN
}
layer {
  name: "data_layer"
  type: "Data"
  top: "data_blob"
  top: "label_blob"
  data_param {
    source: "lmdb/SCOREDATA.vina.balanced.full"
    batch_size: 40000
    backend: LMDB
    prefetch: 8
  }
}
layer {
  name: "hidden_sum_layer"
  type: "InnerProduct"
  bottom: "data_blob"
  top: "hidden_sum_blob"
  inner_product_param {
    num_output: 10
    weight_filler {
      type: "xavier"
    }
    bias_filler {
      type: "constant"
    }
  }
}
layer {
  name: "hidden_act_layer"
  type: "Sigmoid"
  bottom: "hidden_sum_blob"
  top: "hidden_act_blob"
}
layer {
  name: "output_sum_layer"
  type: "InnerProduct"
  bottom: "hidden_act_blob"
  top: "output_sum_blob"
  inner_product_param {
    num_output: 1
    weight_filler {
      type: "xavier"
    }
    bias_filler {
      type: "constant"
    }
  }
}
layer {
  name: "error_layer"
  type: "SigmoidCrossEntropyLoss"
  bottom: "output_act_blob"
  bottom: "label_blob"
  top: "error_blob"
}
F1006 18:18:27.895632 25846 insert_splits.cpp:35] Unknown bottom blob 'output_act_blob' (layer 'error_layer', bottom index 0)
*** Check failure stack trace: ***
    @     0x7f6260d39daa  (unknown)
    @     0x7f6260d39ce4  (unknown)
    @     0x7f6260d396e6  (unknown)
    @     0x7f6260d3c687  (unknown)
    @     0x7f626119691e  caffe::InsertSplits()
    @     0x7f62611d1b0b  caffe::Net<>::Init()
    @     0x7f62611d41a5  caffe::Net<>::Net()
    @     0x7f626116f38a  caffe::Solver<>::InitTrainNet()
    @     0x7f62611704cc  caffe::Solver<>::Init()
    @     0x7f62611707d9  caffe::Solver<>::Solver()
    @           0x412945  caffe::GetSolver<>()
    @           0x40b626  train()
    @           0x409471  main
    @     0x7f625fa5cec5  (unknown)
    @           0x409c0b  (unknown)
    @              (nil)  (unknown)
I1006 18:18:28.007797 25852 caffe.cpp:184] Using GPUs 0
I1006 18:18:28.568585 25852 solver.cpp:54] Initializing solver from parameters: 
test_iter: 1
test_interval: 100
base_lr: 0.01
display: 100
max_iter: 1000
lr_policy: "fixed"
momentum: 0.9
solver_mode: GPU
device_id: 0
net: "full_batch_ce/model2_part9.prototxt"
I1006 18:18:28.568616 25852 solver.cpp:97] Creating training net from net file: full_batch_ce/model2_part9.prototxt
I1006 18:18:28.568773 25852 net.cpp:339] The NetState phase (0) differed from the phase (1) specified by a rule in layer data_layer
I1006 18:18:28.568814 25852 net.cpp:50] Initializing net from parameters: 
name: "full_batch_ce/model2_part9.prototxt"
state {
  phase: TRAIN
}
layer {
  name: "data_layer"
  type: "Data"
  top: "data_blob"
  top: "label_blob"
  include {
    phase: TRAIN
  }
  data_param {
    source: "lmdb/SCOREDATA.vina.balanced.part9.train"
    batch_size: 40000
    backend: LMDB
    prefetch: 8
  }
}
layer {
  name: "hidden_sum_layer"
  type: "InnerProduct"
  bottom: "data_blob"
  top: "hidden_sum_blob"
  inner_product_param {
    num_output: 10
    weight_filler {
      type: "xavier"
    }
    bias_filler {
      type: "constant"
    }
  }
}
layer {
  name: "hidden_act_layer"
  type: "Sigmoid"
  bottom: "hidden_sum_blob"
  top: "hidden_act_blob"
}
layer {
  name: "output_sum_layer"
  type: "InnerProduct"
  bottom: "hidden_act_blob"
  top: "output_sum_blob"
  inner_product_param {
    num_output: 1
    weight_filler {
      type: "xavier"
    }
    bias_filler {
      type: "constant"
    }
  }
}
layer {
  name: "error_layer"
  type: "SigmoidCrossEntropyLoss"
  bottom: "output_act_blob"
  bottom: "label_blob"
  top: "error_blob"
}
F1006 18:18:28.568833 25852 insert_splits.cpp:35] Unknown bottom blob 'output_act_blob' (layer 'error_layer', bottom index 0)
*** Check failure stack trace: ***
    @     0x7f16d3b1ddaa  (unknown)
    @     0x7f16d3b1dce4  (unknown)
    @     0x7f16d3b1d6e6  (unknown)
    @     0x7f16d3b20687  (unknown)
    @     0x7f16d3f7a91e  caffe::InsertSplits()
    @     0x7f16d3fb5b0b  caffe::Net<>::Init()
    @     0x7f16d3fb81a5  caffe::Net<>::Net()
    @     0x7f16d3f5338a  caffe::Solver<>::InitTrainNet()
    @     0x7f16d3f544cc  caffe::Solver<>::Init()
    @     0x7f16d3f547d9  caffe::Solver<>::Solver()
    @           0x412945  caffe::GetSolver<>()
    @           0x40b626  train()
    @           0x409471  main
    @     0x7f16d2840ec5  (unknown)
    @           0x409c0b  (unknown)
    @              (nil)  (unknown)
I1006 18:18:28.679137 25858 caffe.cpp:184] Using GPUs 0
I1006 18:18:29.235937 25858 solver.cpp:54] Initializing solver from parameters: 
test_iter: 1
test_interval: 100
base_lr: 0.01
display: 100
max_iter: 1000
lr_policy: "fixed"
momentum: 0.9
solver_mode: GPU
device_id: 0
net: "full_batch_ce/model2_part0.prototxt"
I1006 18:18:29.235967 25858 solver.cpp:97] Creating training net from net file: full_batch_ce/model2_part0.prototxt
I1006 18:18:29.236189 25858 net.cpp:339] The NetState phase (0) differed from the phase (1) specified by a rule in layer data_layer
I1006 18:18:29.236233 25858 net.cpp:50] Initializing net from parameters: 
name: "full_batch_ce/model2_part0.prototxt"
state {
  phase: TRAIN
}
layer {
  name: "data_layer"
  type: "Data"
  top: "data_blob"
  top: "label_blob"
  include {
    phase: TRAIN
  }
  data_param {
    source: "lmdb/SCOREDATA.vina.balanced.part0.train"
    batch_size: 40000
    backend: LMDB
    prefetch: 8
  }
}
layer {
  name: "hidden_sum_layer"
  type: "InnerProduct"
  bottom: "data_blob"
  top: "hidden_sum_blob"
  inner_product_param {
    num_output: 10
    weight_filler {
      type: "xavier"
    }
    bias_filler {
      type: "constant"
    }
  }
}
layer {
  name: "hidden_act_layer"
  type: "Sigmoid"
  bottom: "hidden_sum_blob"
  top: "hidden_act_blob"
}
layer {
  name: "output_sum_layer"
  type: "InnerProduct"
  bottom: "hidden_act_blob"
  top: "output_sum_blob"
  inner_product_param {
    num_output: 1
    weight_filler {
      type: "xavier"
    }
    bias_filler {
      type: "constant"
    }
  }
}
layer {
  name: "error_layer"
  type: "SigmoidCrossEntropyLoss"
  bottom: "output_act_blob"
  bottom: "label_blob"
  top: "error_blob"
}
F1006 18:18:29.236261 25858 insert_splits.cpp:35] Unknown bottom blob 'output_act_blob' (layer 'error_layer', bottom index 0)
*** Check failure stack trace: ***
    @     0x7f9f1397bdaa  (unknown)
    @     0x7f9f1397bce4  (unknown)
    @     0x7f9f1397b6e6  (unknown)
    @     0x7f9f1397e687  (unknown)
    @     0x7f9f13dd891e  caffe::InsertSplits()
    @     0x7f9f13e13b0b  caffe::Net<>::Init()
    @     0x7f9f13e161a5  caffe::Net<>::Net()
    @     0x7f9f13db138a  caffe::Solver<>::InitTrainNet()
    @     0x7f9f13db24cc  caffe::Solver<>::Init()
    @     0x7f9f13db27d9  caffe::Solver<>::Solver()
    @           0x412945  caffe::GetSolver<>()
    @           0x40b626  train()
    @           0x409471  main
    @     0x7f9f1269eec5  (unknown)
    @           0x409c0b  (unknown)
    @              (nil)  (unknown)
I1006 18:18:29.349196 25864 caffe.cpp:184] Using GPUs 0
I1006 18:18:29.908200 25864 solver.cpp:54] Initializing solver from parameters: 
test_iter: 1
test_interval: 100
base_lr: 0.01
display: 100
max_iter: 1000
lr_policy: "fixed"
momentum: 0.9
solver_mode: GPU
device_id: 0
net: "full_batch_ce/model2_part1.prototxt"
I1006 18:18:29.908231 25864 solver.cpp:97] Creating training net from net file: full_batch_ce/model2_part1.prototxt
I1006 18:18:29.908390 25864 net.cpp:339] The NetState phase (0) differed from the phase (1) specified by a rule in layer data_layer
I1006 18:18:29.908434 25864 net.cpp:50] Initializing net from parameters: 
name: "full_batch_ce/model2_part1.prototxt"
state {
  phase: TRAIN
}
layer {
  name: "data_layer"
  type: "Data"
  top: "data_blob"
  top: "label_blob"
  include {
    phase: TRAIN
  }
  data_param {
    source: "lmdb/SCOREDATA.vina.balanced.part1.train"
    batch_size: 40000
    backend: LMDB
    prefetch: 8
  }
}
layer {
  name: "hidden_sum_layer"
  type: "InnerProduct"
  bottom: "data_blob"
  top: "hidden_sum_blob"
  inner_product_param {
    num_output: 10
    weight_filler {
      type: "xavier"
    }
    bias_filler {
      type: "constant"
    }
  }
}
layer {
  name: "hidden_act_layer"
  type: "Sigmoid"
  bottom: "hidden_sum_blob"
  top: "hidden_act_blob"
}
layer {
  name: "output_sum_layer"
  type: "InnerProduct"
  bottom: "hidden_act_blob"
  top: "output_sum_blob"
  inner_product_param {
    num_output: 1
    weight_filler {
      type: "xavier"
    }
    bias_filler {
      type: "constant"
    }
  }
}
layer {
  name: "error_layer"
  type: "SigmoidCrossEntropyLoss"
  bottom: "output_act_blob"
  bottom: "label_blob"
  top: "error_blob"
}
F1006 18:18:29.908478 25864 insert_splits.cpp:35] Unknown bottom blob 'output_act_blob' (layer 'error_layer', bottom index 0)
*** Check failure stack trace: ***
    @     0x7f890038bdaa  (unknown)
    @     0x7f890038bce4  (unknown)
    @     0x7f890038b6e6  (unknown)
    @     0x7f890038e687  (unknown)
    @     0x7f89007e891e  caffe::InsertSplits()
    @     0x7f8900823b0b  caffe::Net<>::Init()
    @     0x7f89008261a5  caffe::Net<>::Net()
    @     0x7f89007c138a  caffe::Solver<>::InitTrainNet()
    @     0x7f89007c24cc  caffe::Solver<>::Init()
    @     0x7f89007c27d9  caffe::Solver<>::Solver()
    @           0x412945  caffe::GetSolver<>()
    @           0x40b626  train()
    @           0x409471  main
    @     0x7f88ff0aeec5  (unknown)
    @           0x409c0b  (unknown)
    @              (nil)  (unknown)
I1006 18:18:30.021190 25870 caffe.cpp:184] Using GPUs 0
I1006 18:18:30.586122 25870 solver.cpp:54] Initializing solver from parameters: 
test_iter: 1
test_interval: 100
base_lr: 0.01
display: 100
max_iter: 1000
lr_policy: "fixed"
momentum: 0.9
solver_mode: GPU
device_id: 0
net: "full_batch_ce/model2_part8.prototxt"
I1006 18:18:30.586153 25870 solver.cpp:97] Creating training net from net file: full_batch_ce/model2_part8.prototxt
I1006 18:18:30.586314 25870 net.cpp:339] The NetState phase (0) differed from the phase (1) specified by a rule in layer data_layer
I1006 18:18:30.586359 25870 net.cpp:50] Initializing net from parameters: 
name: "full_batch_ce/model2_part8.prototxt"
state {
  phase: TRAIN
}
layer {
  name: "data_layer"
  type: "Data"
  top: "data_blob"
  top: "label_blob"
  include {
    phase: TRAIN
  }
  data_param {
    source: "lmdb/SCOREDATA.vina.balanced.part8.train"
    batch_size: 40000
    backend: LMDB
    prefetch: 8
  }
}
layer {
  name: "hidden_sum_layer"
  type: "InnerProduct"
  bottom: "data_blob"
  top: "hidden_sum_blob"
  inner_product_param {
    num_output: 10
    weight_filler {
      type: "xavier"
    }
    bias_filler {
      type: "constant"
    }
  }
}
layer {
  name: "hidden_act_layer"
  type: "Sigmoid"
  bottom: "hidden_sum_blob"
  top: "hidden_act_blob"
}
layer {
  name: "output_sum_layer"
  type: "InnerProduct"
  bottom: "hidden_act_blob"
  top: "output_sum_blob"
  inner_product_param {
    num_output: 1
    weight_filler {
      type: "xavier"
    }
    bias_filler {
      type: "constant"
    }
  }
}
layer {
  name: "error_layer"
  type: "SigmoidCrossEntropyLoss"
  bottom: "output_act_blob"
  bottom: "label_blob"
  top: "error_blob"
}
F1006 18:18:30.586398 25870 insert_splits.cpp:35] Unknown bottom blob 'output_act_blob' (layer 'error_layer', bottom index 0)
*** Check failure stack trace: ***
    @     0x7f8ea7523daa  (unknown)
    @     0x7f8ea7523ce4  (unknown)
    @     0x7f8ea75236e6  (unknown)
    @     0x7f8ea7526687  (unknown)
    @     0x7f8ea798091e  caffe::InsertSplits()
    @     0x7f8ea79bbb0b  caffe::Net<>::Init()
    @     0x7f8ea79be1a5  caffe::Net<>::Net()
    @     0x7f8ea795938a  caffe::Solver<>::InitTrainNet()
    @     0x7f8ea795a4cc  caffe::Solver<>::Init()
    @     0x7f8ea795a7d9  caffe::Solver<>::Solver()
    @           0x412945  caffe::GetSolver<>()
    @           0x40b626  train()
    @           0x409471  main
    @     0x7f8ea6246ec5  (unknown)
    @           0x409c0b  (unknown)
    @              (nil)  (unknown)
I1006 18:18:30.694826 25876 caffe.cpp:184] Using GPUs 0
I1006 18:18:31.254765 25876 solver.cpp:54] Initializing solver from parameters: 
test_iter: 1
test_interval: 100
base_lr: 0.01
display: 100
max_iter: 1000
lr_policy: "fixed"
momentum: 0.9
solver_mode: GPU
device_id: 0
net: "full_batch_ce/model2_part4.prototxt"
I1006 18:18:31.254794 25876 solver.cpp:97] Creating training net from net file: full_batch_ce/model2_part4.prototxt
I1006 18:18:31.254956 25876 net.cpp:339] The NetState phase (0) differed from the phase (1) specified by a rule in layer data_layer
I1006 18:18:31.255005 25876 net.cpp:50] Initializing net from parameters: 
name: "full_batch_ce/model2_part4.prototxt"
state {
  phase: TRAIN
}
layer {
  name: "data_layer"
  type: "Data"
  top: "data_blob"
  top: "label_blob"
  include {
    phase: TRAIN
  }
  data_param {
    source: "lmdb/SCOREDATA.vina.balanced.part4.train"
    batch_size: 40000
    backend: LMDB
    prefetch: 8
  }
}
layer {
  name: "hidden_sum_layer"
  type: "InnerProduct"
  bottom: "data_blob"
  top: "hidden_sum_blob"
  inner_product_param {
    num_output: 10
    weight_filler {
      type: "xavier"
    }
    bias_filler {
      type: "constant"
    }
  }
}
layer {
  name: "hidden_act_layer"
  type: "Sigmoid"
  bottom: "hidden_sum_blob"
  top: "hidden_act_blob"
}
layer {
  name: "output_sum_layer"
  type: "InnerProduct"
  bottom: "hidden_act_blob"
  top: "output_sum_blob"
  inner_product_param {
    num_output: 1
    weight_filler {
      type: "xavier"
    }
    bias_filler {
      type: "constant"
    }
  }
}
layer {
  name: "error_layer"
  type: "SigmoidCrossEntropyLoss"
  bottom: "output_act_blob"
  bottom: "label_blob"
  top: "error_blob"
}
F1006 18:18:31.255043 25876 insert_splits.cpp:35] Unknown bottom blob 'output_act_blob' (layer 'error_layer', bottom index 0)
*** Check failure stack trace: ***
    @     0x7fec05ef1daa  (unknown)
    @     0x7fec05ef1ce4  (unknown)
    @     0x7fec05ef16e6  (unknown)
    @     0x7fec05ef4687  (unknown)
    @     0x7fec0634e91e  caffe::InsertSplits()
    @     0x7fec06389b0b  caffe::Net<>::Init()
    @     0x7fec0638c1a5  caffe::Net<>::Net()
    @     0x7fec0632738a  caffe::Solver<>::InitTrainNet()
    @     0x7fec063284cc  caffe::Solver<>::Init()
    @     0x7fec063287d9  caffe::Solver<>::Solver()
    @           0x412945  caffe::GetSolver<>()
    @           0x40b626  train()
    @           0x409471  main
    @     0x7fec04c14ec5  (unknown)
    @           0x409c0b  (unknown)
    @              (nil)  (unknown)
I1006 18:18:31.364913 25882 caffe.cpp:184] Using GPUs 0
I1006 18:18:31.928516 25882 solver.cpp:54] Initializing solver from parameters: 
test_iter: 1
test_interval: 100
base_lr: 0.01
display: 100
max_iter: 1000
lr_policy: "fixed"
momentum: 0.9
solver_mode: GPU
device_id: 0
net: "full_batch_ce/model2_part7.prototxt"
I1006 18:18:31.928547 25882 solver.cpp:97] Creating training net from net file: full_batch_ce/model2_part7.prototxt
I1006 18:18:31.928733 25882 net.cpp:339] The NetState phase (0) differed from the phase (1) specified by a rule in layer data_layer
I1006 18:18:31.928777 25882 net.cpp:50] Initializing net from parameters: 
name: "full_batch_ce/model2_part7.prototxt"
state {
  phase: TRAIN
}
layer {
  name: "data_layer"
  type: "Data"
  top: "data_blob"
  top: "label_blob"
  include {
    phase: TRAIN
  }
  data_param {
    source: "lmdb/SCOREDATA.vina.balanced.part7.train"
    batch_size: 40000
    backend: LMDB
    prefetch: 8
  }
}
layer {
  name: "hidden_sum_layer"
  type: "InnerProduct"
  bottom: "data_blob"
  top: "hidden_sum_blob"
  inner_product_param {
    num_output: 10
    weight_filler {
      type: "xavier"
    }
    bias_filler {
      type: "constant"
    }
  }
}
layer {
  name: "hidden_act_layer"
  type: "Sigmoid"
  bottom: "hidden_sum_blob"
  top: "hidden_act_blob"
}
layer {
  name: "output_sum_layer"
  type: "InnerProduct"
  bottom: "hidden_act_blob"
  top: "output_sum_blob"
  inner_product_param {
    num_output: 1
    weight_filler {
      type: "xavier"
    }
    bias_filler {
      type: "constant"
    }
  }
}
layer {
  name: "error_layer"
  type: "SigmoidCrossEntropyLoss"
  bottom: "output_act_blob"
  bottom: "label_blob"
  top: "error_blob"
}
F1006 18:18:31.928797 25882 insert_splits.cpp:35] Unknown bottom blob 'output_act_blob' (layer 'error_layer', bottom index 0)
*** Check failure stack trace: ***
    @     0x7f45e7ab7daa  (unknown)
    @     0x7f45e7ab7ce4  (unknown)
    @     0x7f45e7ab76e6  (unknown)
    @     0x7f45e7aba687  (unknown)
    @     0x7f45e7f1491e  caffe::InsertSplits()
    @     0x7f45e7f4fb0b  caffe::Net<>::Init()
    @     0x7f45e7f521a5  caffe::Net<>::Net()
    @     0x7f45e7eed38a  caffe::Solver<>::InitTrainNet()
    @     0x7f45e7eee4cc  caffe::Solver<>::Init()
    @     0x7f45e7eee7d9  caffe::Solver<>::Solver()
    @           0x412945  caffe::GetSolver<>()
    @           0x40b626  train()
    @           0x409471  main
    @     0x7f45e67daec5  (unknown)
    @           0x409c0b  (unknown)
    @              (nil)  (unknown)
I1006 18:18:32.040894 25888 caffe.cpp:184] Using GPUs 0
I1006 18:18:32.601377 25888 solver.cpp:54] Initializing solver from parameters: 
test_iter: 1
test_interval: 100
base_lr: 0.01
display: 100
max_iter: 1000
lr_policy: "fixed"
momentum: 0.9
solver_mode: GPU
device_id: 0
net: "full_batch_ce/model2_part3.prototxt"
I1006 18:18:32.601407 25888 solver.cpp:97] Creating training net from net file: full_batch_ce/model2_part3.prototxt
I1006 18:18:32.601559 25888 net.cpp:339] The NetState phase (0) differed from the phase (1) specified by a rule in layer data_layer
I1006 18:18:32.601596 25888 net.cpp:50] Initializing net from parameters: 
name: "full_batch_ce/model2_part3.prototxt"
state {
  phase: TRAIN
}
layer {
  name: "data_layer"
  type: "Data"
  top: "data_blob"
  top: "label_blob"
  include {
    phase: TRAIN
  }
  data_param {
    source: "lmdb/SCOREDATA.vina.balanced.part3.train"
    batch_size: 40000
    backend: LMDB
    prefetch: 8
  }
}
layer {
  name: "hidden_sum_layer"
  type: "InnerProduct"
  bottom: "data_blob"
  top: "hidden_sum_blob"
  inner_product_param {
    num_output: 10
    weight_filler {
      type: "xavier"
    }
    bias_filler {
      type: "constant"
    }
  }
}
layer {
  name: "hidden_act_layer"
  type: "Sigmoid"
  bottom: "hidden_sum_blob"
  top: "hidden_act_blob"
}
layer {
  name: "output_sum_layer"
  type: "InnerProduct"
  bottom: "hidden_act_blob"
  top: "output_sum_blob"
  inner_product_param {
    num_output: 1
    weight_filler {
      type: "xavier"
    }
    bias_filler {
      type: "constant"
    }
  }
}
layer {
  name: "error_layer"
  type: "SigmoidCrossEntropyLoss"
  bottom: "output_act_blob"
  bottom: "label_blob"
  top: "error_blob"
}
F1006 18:18:32.601622 25888 insert_splits.cpp:35] Unknown bottom blob 'output_act_blob' (layer 'error_layer', bottom index 0)
*** Check failure stack trace: ***
    @     0x7f9cbabc1daa  (unknown)
    @     0x7f9cbabc1ce4  (unknown)
    @     0x7f9cbabc16e6  (unknown)
    @     0x7f9cbabc4687  (unknown)
    @     0x7f9cbb01e91e  caffe::InsertSplits()
    @     0x7f9cbb059b0b  caffe::Net<>::Init()
    @     0x7f9cbb05c1a5  caffe::Net<>::Net()
    @     0x7f9cbaff738a  caffe::Solver<>::InitTrainNet()
    @     0x7f9cbaff84cc  caffe::Solver<>::Init()
    @     0x7f9cbaff87d9  caffe::Solver<>::Solver()
    @           0x412945  caffe::GetSolver<>()
    @           0x40b626  train()
    @           0x409471  main
    @     0x7f9cb98e4ec5  (unknown)
    @           0x409c0b  (unknown)
    @              (nil)  (unknown)
I1006 18:18:32.705276 25894 caffe.cpp:184] Using GPUs 0
I1006 18:18:33.264709 25894 solver.cpp:54] Initializing solver from parameters: 
test_iter: 1
test_interval: 100
base_lr: 0.01
display: 100
max_iter: 1000
lr_policy: "fixed"
momentum: 0.9
solver_mode: GPU
device_id: 0
net: "full_batch_ce/model2_part6.prototxt"
I1006 18:18:33.264739 25894 solver.cpp:97] Creating training net from net file: full_batch_ce/model2_part6.prototxt
I1006 18:18:33.264894 25894 net.cpp:339] The NetState phase (0) differed from the phase (1) specified by a rule in layer data_layer
I1006 18:18:33.264946 25894 net.cpp:50] Initializing net from parameters: 
name: "full_batch_ce/model2_part6.prototxt"
state {
  phase: TRAIN
}
layer {
  name: "data_layer"
  type: "Data"
  top: "data_blob"
  top: "label_blob"
  include {
    phase: TRAIN
  }
  data_param {
    source: "lmdb/SCOREDATA.vina.balanced.part6.train"
    batch_size: 40000
    backend: LMDB
    prefetch: 8
  }
}
layer {
  name: "hidden_sum_layer"
  type: "InnerProduct"
  bottom: "data_blob"
  top: "hidden_sum_blob"
  inner_product_param {
    num_output: 10
    weight_filler {
      type: "xavier"
    }
    bias_filler {
      type: "constant"
    }
  }
}
layer {
  name: "hidden_act_layer"
  type: "Sigmoid"
  bottom: "hidden_sum_blob"
  top: "hidden_act_blob"
}
layer {
  name: "output_sum_layer"
  type: "InnerProduct"
  bottom: "hidden_act_blob"
  top: "output_sum_blob"
  inner_product_param {
    num_output: 1
    weight_filler {
      type: "xavier"
    }
    bias_filler {
      type: "constant"
    }
  }
}
layer {
  name: "error_layer"
  type: "SigmoidCrossEntropyLoss"
  bottom: "output_act_blob"
  bottom: "label_blob"
  top: "error_blob"
}
F1006 18:18:33.264976 25894 insert_splits.cpp:35] Unknown bottom blob 'output_act_blob' (layer 'error_layer', bottom index 0)
*** Check failure stack trace: ***
    @     0x7f5b01fd1daa  (unknown)
    @     0x7f5b01fd1ce4  (unknown)
    @     0x7f5b01fd16e6  (unknown)
    @     0x7f5b01fd4687  (unknown)
    @     0x7f5b0242e91e  caffe::InsertSplits()
    @     0x7f5b02469b0b  caffe::Net<>::Init()
    @     0x7f5b0246c1a5  caffe::Net<>::Net()
    @     0x7f5b0240738a  caffe::Solver<>::InitTrainNet()
    @     0x7f5b024084cc  caffe::Solver<>::Init()
    @     0x7f5b024087d9  caffe::Solver<>::Solver()
    @           0x412945  caffe::GetSolver<>()
    @           0x40b626  train()
    @           0x409471  main
    @     0x7f5b00cf4ec5  (unknown)
    @           0x409c0b  (unknown)
    @              (nil)  (unknown)
