I1008 21:41:23.987457  3523 caffe.cpp:184] Using GPUs 0
I1008 21:41:24.559145  3523 solver.cpp:54] Initializing solver from parameters: 
test_iter: 1
test_interval: 100
base_lr: 0.1
display: 100
max_iter: 5000
lr_policy: "inv"
gamma: 0.0004
power: 2
momentum: 0.9
solver_mode: GPU
device_id: 0
net: "two_hidden/model3_part2.prototxt"
I1008 21:41:24.559176  3523 solver.cpp:97] Creating training net from net file: two_hidden/model3_part2.prototxt
I1008 21:41:24.559361  3523 net.cpp:339] The NetState phase (0) differed from the phase (1) specified by a rule in layer data_layer
I1008 21:41:24.559412  3523 net.cpp:50] Initializing net from parameters: 
name: "two_hidden/model3_part2.prototxt"
state {
  phase: TRAIN
}
layer {
  name: "data_layer"
  type: "Data"
  top: "data_blob"
  top: "label_blob"
  include {
    phase: TRAIN
  }
  data_param {
    source: "lmdb/SCOREDATA.vina.balanced.part2.train"
    batch_size: 40000
    backend: LMDB
    prefetch: 8
  }
}
layer {
  name: "hidden_sum_layer1"
  type: "InnerProduct"
  bottom: "data_blob"
  top: "hidden_sum_blob1"
  inner_product_param {
    num_output: 10
    weight_filler {
      type: "xavier"
    }
    bias_filler {
      type: "constant"
    }
  }
}
layer {
  name: "hidden_act_layer1"
  type: "Sigmoid"
  bottom: "hidden_sum_blob1"
  top: "hidden_act_blob2"
}
layer {
  name: "hidden_sum_layer2"
  type: "InnerProduct"
  bottom: "hidden_act_blob1"
  top: "hidden_sum_blob2"
  inner_product_param {
    num_output: 10
    weight_filler {
      type: "xavier"
    }
    bias_filler {
      type: "constant"
    }
  }
}
layer {
  name: "hidden_act_layer2"
  type: "Sigmoid"
  bottom: "hidden_sum_blob2"
  top: "hidden_act_blob2"
}
layer {
  name: "output_sum_layer"
  type: "InnerProduct"
  bottom: "hidden_act_blob2"
  top: "output_sum_blob"
  inner_product_param {
    num_output: 1
    weight_filler {
      type: "xavier"
    }
    bias_filler {
      type: "constant"
    }
  }
}
layer {
  name: "output_act_layer"
  type: "Sigmoid"
  bottom: "output_sum_blob"
  top: "output_act_blob"
}
layer {
  name: "error_layer"
  type: "EuclideanLoss"
  bottom: "output_act_blob"
  bottom: "label_blob"
  top: "error_blob"
}
F1008 21:41:24.559434  3523 insert_splits.cpp:35] Unknown bottom blob 'hidden_act_blob1' (layer 'hidden_sum_layer2', bottom index 0)
*** Check failure stack trace: ***
    @     0x7f1e30213daa  (unknown)
    @     0x7f1e30213ce4  (unknown)
    @     0x7f1e302136e6  (unknown)
    @     0x7f1e30216687  (unknown)
    @     0x7f1e3067091e  caffe::InsertSplits()
    @     0x7f1e306abb0b  caffe::Net<>::Init()
    @     0x7f1e306ae1a5  caffe::Net<>::Net()
    @     0x7f1e3064938a  caffe::Solver<>::InitTrainNet()
    @     0x7f1e3064a4cc  caffe::Solver<>::Init()
    @     0x7f1e3064a7d9  caffe::Solver<>::Solver()
    @           0x412945  caffe::GetSolver<>()
    @           0x40b626  train()
    @           0x409471  main
    @     0x7f1e2ef36ec5  (unknown)
    @           0x409c0b  (unknown)
    @              (nil)  (unknown)
I1008 21:41:24.670971  3529 caffe.cpp:184] Using GPUs 0
I1008 21:41:25.227557  3529 solver.cpp:54] Initializing solver from parameters: 
test_iter: 1
test_interval: 100
base_lr: 0.1
display: 100
max_iter: 5000
lr_policy: "inv"
gamma: 0.0004
power: 2
momentum: 0.9
solver_mode: GPU
device_id: 0
net: "two_hidden/model3_part5.prototxt"
I1008 21:41:25.227589  3529 solver.cpp:97] Creating training net from net file: two_hidden/model3_part5.prototxt
I1008 21:41:25.227764  3529 net.cpp:339] The NetState phase (0) differed from the phase (1) specified by a rule in layer data_layer
I1008 21:41:25.227813  3529 net.cpp:50] Initializing net from parameters: 
name: "two_hidden/model3_part5.prototxt"
state {
  phase: TRAIN
}
layer {
  name: "data_layer"
  type: "Data"
  top: "data_blob"
  top: "label_blob"
  include {
    phase: TRAIN
  }
  data_param {
    source: "lmdb/SCOREDATA.vina.balanced.part5.train"
    batch_size: 40000
    backend: LMDB
    prefetch: 8
  }
}
layer {
  name: "hidden_sum_layer1"
  type: "InnerProduct"
  bottom: "data_blob"
  top: "hidden_sum_blob1"
  inner_product_param {
    num_output: 10
    weight_filler {
      type: "xavier"
    }
    bias_filler {
      type: "constant"
    }
  }
}
layer {
  name: "hidden_act_layer1"
  type: "Sigmoid"
  bottom: "hidden_sum_blob1"
  top: "hidden_act_blob2"
}
layer {
  name: "hidden_sum_layer2"
  type: "InnerProduct"
  bottom: "hidden_act_blob1"
  top: "hidden_sum_blob2"
  inner_product_param {
    num_output: 10
    weight_filler {
      type: "xavier"
    }
    bias_filler {
      type: "constant"
    }
  }
}
layer {
  name: "hidden_act_layer2"
  type: "Sigmoid"
  bottom: "hidden_sum_blob2"
  top: "hidden_act_blob2"
}
layer {
  name: "output_sum_layer"
  type: "InnerProduct"
  bottom: "hidden_act_blob2"
  top: "output_sum_blob"
  inner_product_param {
    num_output: 1
    weight_filler {
      type: "xavier"
    }
    bias_filler {
      type: "constant"
    }
  }
}
layer {
  name: "output_act_layer"
  type: "Sigmoid"
  bottom: "output_sum_blob"
  top: "output_act_blob"
}
layer {
  name: "error_layer"
  type: "EuclideanLoss"
  bottom: "output_act_blob"
  bottom: "label_blob"
  top: "error_blob"
}
F1008 21:41:25.227835  3529 insert_splits.cpp:35] Unknown bottom blob 'hidden_act_blob1' (layer 'hidden_sum_layer2', bottom index 0)
*** Check failure stack trace: ***
    @     0x7ff5f3802daa  (unknown)
    @     0x7ff5f3802ce4  (unknown)
    @     0x7ff5f38026e6  (unknown)
    @     0x7ff5f3805687  (unknown)
    @     0x7ff5f3c5f91e  caffe::InsertSplits()
    @     0x7ff5f3c9ab0b  caffe::Net<>::Init()
    @     0x7ff5f3c9d1a5  caffe::Net<>::Net()
    @     0x7ff5f3c3838a  caffe::Solver<>::InitTrainNet()
    @     0x7ff5f3c394cc  caffe::Solver<>::Init()
    @     0x7ff5f3c397d9  caffe::Solver<>::Solver()
    @           0x412945  caffe::GetSolver<>()
    @           0x40b626  train()
    @           0x409471  main
    @     0x7ff5f2525ec5  (unknown)
    @           0x409c0b  (unknown)
    @              (nil)  (unknown)
I1008 21:41:25.347645  3536 caffe.cpp:184] Using GPUs 0
I1008 21:41:25.905107  3536 solver.cpp:54] Initializing solver from parameters: 
base_lr: 0.1
display: 100
max_iter: 5000
lr_policy: "inv"
gamma: 0.0004
power: 2
momentum: 0.9
solver_mode: GPU
device_id: 0
net: "two_hidden/model3_full.prototxt"
I1008 21:41:25.905135  3536 solver.cpp:97] Creating training net from net file: two_hidden/model3_full.prototxt
I1008 21:41:25.905330  3536 net.cpp:50] Initializing net from parameters: 
name: "two_hidden/model3_full.prototxt"
state {
  phase: TRAIN
}
layer {
  name: "data_layer"
  type: "Data"
  top: "data_blob"
  top: "label_blob"
  data_param {
    source: "lmdb/SCOREDATA.vina.balanced.full"
    batch_size: 40000
    backend: LMDB
    prefetch: 8
  }
}
layer {
  name: "hidden_sum_layer1"
  type: "InnerProduct"
  bottom: "data_blob"
  top: "hidden_sum_blob1"
  inner_product_param {
    num_output: 10
    weight_filler {
      type: "xavier"
    }
    bias_filler {
      type: "constant"
    }
  }
}
layer {
  name: "hidden_act_layer1"
  type: "Sigmoid"
  bottom: "hidden_sum_blob1"
  top: "hidden_act_blob2"
}
layer {
  name: "hidden_sum_layer2"
  type: "InnerProduct"
  bottom: "hidden_act_blob1"
  top: "hidden_sum_blob2"
  inner_product_param {
    num_output: 10
    weight_filler {
      type: "xavier"
    }
    bias_filler {
      type: "constant"
    }
  }
}
layer {
  name: "hidden_act_layer2"
  type: "Sigmoid"
  bottom: "hidden_sum_blob2"
  top: "hidden_act_blob2"
}
layer {
  name: "output_sum_layer"
  type: "InnerProduct"
  bottom: "hidden_act_blob2"
  top: "output_sum_blob"
  inner_product_param {
    num_output: 1
    weight_filler {
      type: "xavier"
    }
    bias_filler {
      type: "constant"
    }
  }
}
layer {
  name: "output_act_layer"
  type: "Sigmoid"
  bottom: "output_sum_blob"
  top: "output_act_blob"
}
layer {
  name: "error_layer"
  type: "EuclideanLoss"
  bottom: "output_act_blob"
  bottom: "label_blob"
  top: "error_blob"
}
F1008 21:41:25.905354  3536 insert_splits.cpp:35] Unknown bottom blob 'hidden_act_blob1' (layer 'hidden_sum_layer2', bottom index 0)
*** Check failure stack trace: ***
    @     0x7ff9a36a7daa  (unknown)
    @     0x7ff9a36a7ce4  (unknown)
    @     0x7ff9a36a76e6  (unknown)
    @     0x7ff9a36aa687  (unknown)
    @     0x7ff9a3b0491e  caffe::InsertSplits()
    @     0x7ff9a3b3fb0b  caffe::Net<>::Init()
    @     0x7ff9a3b421a5  caffe::Net<>::Net()
    @     0x7ff9a3add38a  caffe::Solver<>::InitTrainNet()
    @     0x7ff9a3ade4cc  caffe::Solver<>::Init()
    @     0x7ff9a3ade7d9  caffe::Solver<>::Solver()
    @           0x412945  caffe::GetSolver<>()
    @           0x40b626  train()
    @           0x409471  main
    @     0x7ff9a23caec5  (unknown)
    @           0x409c0b  (unknown)
    @              (nil)  (unknown)
I1008 21:41:26.014444  3542 caffe.cpp:184] Using GPUs 0
I1008 21:41:26.573479  3542 solver.cpp:54] Initializing solver from parameters: 
test_iter: 1
test_interval: 100
base_lr: 0.1
display: 100
max_iter: 5000
lr_policy: "inv"
gamma: 0.0004
power: 2
momentum: 0.9
solver_mode: GPU
device_id: 0
net: "two_hidden/model3_part9.prototxt"
I1008 21:41:26.573511  3542 solver.cpp:97] Creating training net from net file: two_hidden/model3_part9.prototxt
I1008 21:41:26.573694  3542 net.cpp:339] The NetState phase (0) differed from the phase (1) specified by a rule in layer data_layer
I1008 21:41:26.573745  3542 net.cpp:50] Initializing net from parameters: 
name: "two_hidden/model3_part9.prototxt"
state {
  phase: TRAIN
}
layer {
  name: "data_layer"
  type: "Data"
  top: "data_blob"
  top: "label_blob"
  include {
    phase: TRAIN
  }
  data_param {
    source: "lmdb/SCOREDATA.vina.balanced.part9.train"
    batch_size: 40000
    backend: LMDB
    prefetch: 8
  }
}
layer {
  name: "hidden_sum_layer1"
  type: "InnerProduct"
  bottom: "data_blob"
  top: "hidden_sum_blob1"
  inner_product_param {
    num_output: 10
    weight_filler {
      type: "xavier"
    }
    bias_filler {
      type: "constant"
    }
  }
}
layer {
  name: "hidden_act_layer1"
  type: "Sigmoid"
  bottom: "hidden_sum_blob1"
  top: "hidden_act_blob2"
}
layer {
  name: "hidden_sum_layer2"
  type: "InnerProduct"
  bottom: "hidden_act_blob1"
  top: "hidden_sum_blob2"
  inner_product_param {
    num_output: 10
    weight_filler {
      type: "xavier"
    }
    bias_filler {
      type: "constant"
    }
  }
}
layer {
  name: "hidden_act_layer2"
  type: "Sigmoid"
  bottom: "hidden_sum_blob2"
  top: "hidden_act_blob2"
}
layer {
  name: "output_sum_layer"
  type: "InnerProduct"
  bottom: "hidden_act_blob2"
  top: "output_sum_blob"
  inner_product_param {
    num_output: 1
    weight_filler {
      type: "xavier"
    }
    bias_filler {
      type: "constant"
    }
  }
}
layer {
  name: "output_act_layer"
  type: "Sigmoid"
  bottom: "output_sum_blob"
  top: "output_act_blob"
}
layer {
  name: "error_layer"
  type: "EuclideanLoss"
  bottom: "output_act_blob"
  bottom: "label_blob"
  top: "error_blob"
}
F1008 21:41:26.573770  3542 insert_splits.cpp:35] Unknown bottom blob 'hidden_act_blob1' (layer 'hidden_sum_layer2', bottom index 0)
*** Check failure stack trace: ***
    @     0x7fca0cfb0daa  (unknown)
    @     0x7fca0cfb0ce4  (unknown)
    @     0x7fca0cfb06e6  (unknown)
    @     0x7fca0cfb3687  (unknown)
    @     0x7fca0d40d91e  caffe::InsertSplits()
    @     0x7fca0d448b0b  caffe::Net<>::Init()
    @     0x7fca0d44b1a5  caffe::Net<>::Net()
    @     0x7fca0d3e638a  caffe::Solver<>::InitTrainNet()
    @     0x7fca0d3e74cc  caffe::Solver<>::Init()
    @     0x7fca0d3e77d9  caffe::Solver<>::Solver()
    @           0x412945  caffe::GetSolver<>()
    @           0x40b626  train()
    @           0x409471  main
    @     0x7fca0bcd3ec5  (unknown)
    @           0x409c0b  (unknown)
    @              (nil)  (unknown)
I1008 21:41:26.686157  3548 caffe.cpp:184] Using GPUs 0
I1008 21:41:27.254614  3548 solver.cpp:54] Initializing solver from parameters: 
test_iter: 1
test_interval: 100
base_lr: 0.1
display: 100
max_iter: 5000
lr_policy: "inv"
gamma: 0.0004
power: 2
momentum: 0.9
solver_mode: GPU
device_id: 0
net: "two_hidden/model3_part0.prototxt"
I1008 21:41:27.254650  3548 solver.cpp:97] Creating training net from net file: two_hidden/model3_part0.prototxt
I1008 21:41:27.254824  3548 net.cpp:339] The NetState phase (0) differed from the phase (1) specified by a rule in layer data_layer
I1008 21:41:27.254870  3548 net.cpp:50] Initializing net from parameters: 
name: "two_hidden/model3_part0.prototxt"
state {
  phase: TRAIN
}
layer {
  name: "data_layer"
  type: "Data"
  top: "data_blob"
  top: "label_blob"
  include {
    phase: TRAIN
  }
  data_param {
    source: "lmdb/SCOREDATA.vina.balanced.part0.train"
    batch_size: 40000
    backend: LMDB
    prefetch: 8
  }
}
layer {
  name: "hidden_sum_layer1"
  type: "InnerProduct"
  bottom: "data_blob"
  top: "hidden_sum_blob1"
  inner_product_param {
    num_output: 10
    weight_filler {
      type: "xavier"
    }
    bias_filler {
      type: "constant"
    }
  }
}
layer {
  name: "hidden_act_layer1"
  type: "Sigmoid"
  bottom: "hidden_sum_blob1"
  top: "hidden_act_blob2"
}
layer {
  name: "hidden_sum_layer2"
  type: "InnerProduct"
  bottom: "hidden_act_blob1"
  top: "hidden_sum_blob2"
  inner_product_param {
    num_output: 10
    weight_filler {
      type: "xavier"
    }
    bias_filler {
      type: "constant"
    }
  }
}
layer {
  name: "hidden_act_layer2"
  type: "Sigmoid"
  bottom: "hidden_sum_blob2"
  top: "hidden_act_blob2"
}
layer {
  name: "output_sum_layer"
  type: "InnerProduct"
  bottom: "hidden_act_blob2"
  top: "output_sum_blob"
  inner_product_param {
    num_output: 1
    weight_filler {
      type: "xavier"
    }
    bias_filler {
      type: "constant"
    }
  }
}
layer {
  name: "output_act_layer"
  type: "Sigmoid"
  bottom: "output_sum_blob"
  top: "output_act_blob"
}
layer {
  name: "error_layer"
  type: "EuclideanLoss"
  bottom: "output_act_blob"
  bottom: "label_blob"
  top: "error_blob"
}
F1008 21:41:27.254900  3548 insert_splits.cpp:35] Unknown bottom blob 'hidden_act_blob1' (layer 'hidden_sum_layer2', bottom index 0)
*** Check failure stack trace: ***
    @     0x7f5d249d1daa  (unknown)
    @     0x7f5d249d1ce4  (unknown)
    @     0x7f5d249d16e6  (unknown)
    @     0x7f5d249d4687  (unknown)
    @     0x7f5d24e2e91e  caffe::InsertSplits()
    @     0x7f5d24e69b0b  caffe::Net<>::Init()
    @     0x7f5d24e6c1a5  caffe::Net<>::Net()
    @     0x7f5d24e0738a  caffe::Solver<>::InitTrainNet()
    @     0x7f5d24e084cc  caffe::Solver<>::Init()
    @     0x7f5d24e087d9  caffe::Solver<>::Solver()
    @           0x412945  caffe::GetSolver<>()
    @           0x40b626  train()
    @           0x409471  main
    @     0x7f5d236f4ec5  (unknown)
    @           0x409c0b  (unknown)
    @              (nil)  (unknown)
I1008 21:41:27.364984  3554 caffe.cpp:184] Using GPUs 0
I1008 21:41:27.929867  3554 solver.cpp:54] Initializing solver from parameters: 
test_iter: 1
test_interval: 100
base_lr: 0.1
display: 100
max_iter: 5000
lr_policy: "inv"
gamma: 0.0004
power: 2
momentum: 0.9
solver_mode: GPU
device_id: 0
net: "two_hidden/model3_part1.prototxt"
I1008 21:41:27.929900  3554 solver.cpp:97] Creating training net from net file: two_hidden/model3_part1.prototxt
I1008 21:41:27.930088  3554 net.cpp:339] The NetState phase (0) differed from the phase (1) specified by a rule in layer data_layer
I1008 21:41:27.930148  3554 net.cpp:50] Initializing net from parameters: 
name: "two_hidden/model3_part1.prototxt"
state {
  phase: TRAIN
}
layer {
  name: "data_layer"
  type: "Data"
  top: "data_blob"
  top: "label_blob"
  include {
    phase: TRAIN
  }
  data_param {
    source: "lmdb/SCOREDATA.vina.balanced.part1.train"
    batch_size: 40000
    backend: LMDB
    prefetch: 8
  }
}
layer {
  name: "hidden_sum_layer1"
  type: "InnerProduct"
  bottom: "data_blob"
  top: "hidden_sum_blob1"
  inner_product_param {
    num_output: 10
    weight_filler {
      type: "xavier"
    }
    bias_filler {
      type: "constant"
    }
  }
}
layer {
  name: "hidden_act_layer1"
  type: "Sigmoid"
  bottom: "hidden_sum_blob1"
  top: "hidden_act_blob2"
}
layer {
  name: "hidden_sum_layer2"
  type: "InnerProduct"
  bottom: "hidden_act_blob1"
  top: "hidden_sum_blob2"
  inner_product_param {
    num_output: 10
    weight_filler {
      type: "xavier"
    }
    bias_filler {
      type: "constant"
    }
  }
}
layer {
  name: "hidden_act_layer2"
  type: "Sigmoid"
  bottom: "hidden_sum_blob2"
  top: "hidden_act_blob2"
}
layer {
  name: "output_sum_layer"
  type: "InnerProduct"
  bottom: "hidden_act_blob2"
  top: "output_sum_blob"
  inner_product_param {
    num_output: 1
    weight_filler {
      type: "xavier"
    }
    bias_filler {
      type: "constant"
    }
  }
}
layer {
  name: "output_act_layer"
  type: "Sigmoid"
  bottom: "output_sum_blob"
  top: "output_act_blob"
}
layer {
  name: "error_layer"
  type: "EuclideanLoss"
  bottom: "output_act_blob"
  bottom: "label_blob"
  top: "error_blob"
}
F1008 21:41:27.930181  3554 insert_splits.cpp:35] Unknown bottom blob 'hidden_act_blob1' (layer 'hidden_sum_layer2', bottom index 0)
*** Check failure stack trace: ***
    @     0x7f309f62adaa  (unknown)
    @     0x7f309f62ace4  (unknown)
    @     0x7f309f62a6e6  (unknown)
    @     0x7f309f62d687  (unknown)
    @     0x7f309fa8791e  caffe::InsertSplits()
    @     0x7f309fac2b0b  caffe::Net<>::Init()
    @     0x7f309fac51a5  caffe::Net<>::Net()
    @     0x7f309fa6038a  caffe::Solver<>::InitTrainNet()
    @     0x7f309fa614cc  caffe::Solver<>::Init()
    @     0x7f309fa617d9  caffe::Solver<>::Solver()
    @           0x412945  caffe::GetSolver<>()
    @           0x40b626  train()
    @           0x409471  main
    @     0x7f309e34dec5  (unknown)
    @           0x409c0b  (unknown)
    @              (nil)  (unknown)
I1008 21:41:28.041563  3560 caffe.cpp:184] Using GPUs 0
I1008 21:41:28.601302  3560 solver.cpp:54] Initializing solver from parameters: 
test_iter: 1
test_interval: 100
base_lr: 0.1
display: 100
max_iter: 5000
lr_policy: "inv"
gamma: 0.0004
power: 2
momentum: 0.9
solver_mode: GPU
device_id: 0
net: "two_hidden/model3_part8.prototxt"
I1008 21:41:28.601335  3560 solver.cpp:97] Creating training net from net file: two_hidden/model3_part8.prototxt
I1008 21:41:28.601522  3560 net.cpp:339] The NetState phase (0) differed from the phase (1) specified by a rule in layer data_layer
I1008 21:41:28.601573  3560 net.cpp:50] Initializing net from parameters: 
name: "two_hidden/model3_part8.prototxt"
state {
  phase: TRAIN
}
layer {
  name: "data_layer"
  type: "Data"
  top: "data_blob"
  top: "label_blob"
  include {
    phase: TRAIN
  }
  data_param {
    source: "lmdb/SCOREDATA.vina.balanced.part8.train"
    batch_size: 40000
    backend: LMDB
    prefetch: 8
  }
}
layer {
  name: "hidden_sum_layer1"
  type: "InnerProduct"
  bottom: "data_blob"
  top: "hidden_sum_blob1"
  inner_product_param {
    num_output: 10
    weight_filler {
      type: "xavier"
    }
    bias_filler {
      type: "constant"
    }
  }
}
layer {
  name: "hidden_act_layer1"
  type: "Sigmoid"
  bottom: "hidden_sum_blob1"
  top: "hidden_act_blob2"
}
layer {
  name: "hidden_sum_layer2"
  type: "InnerProduct"
  bottom: "hidden_act_blob1"
  top: "hidden_sum_blob2"
  inner_product_param {
    num_output: 10
    weight_filler {
      type: "xavier"
    }
    bias_filler {
      type: "constant"
    }
  }
}
layer {
  name: "hidden_act_layer2"
  type: "Sigmoid"
  bottom: "hidden_sum_blob2"
  top: "hidden_act_blob2"
}
layer {
  name: "output_sum_layer"
  type: "InnerProduct"
  bottom: "hidden_act_blob2"
  top: "output_sum_blob"
  inner_product_param {
    num_output: 1
    weight_filler {
      type: "xavier"
    }
    bias_filler {
      type: "constant"
    }
  }
}
layer {
  name: "output_act_layer"
  type: "Sigmoid"
  bottom: "output_sum_blob"
  top: "output_act_blob"
}
layer {
  name: "error_layer"
  type: "EuclideanLoss"
  bottom: "output_act_blob"
  bottom: "label_blob"
  top: "error_blob"
}
F1008 21:41:28.601598  3560 insert_splits.cpp:35] Unknown bottom blob 'hidden_act_blob1' (layer 'hidden_sum_layer2', bottom index 0)
*** Check failure stack trace: ***
    @     0x7fd37fd93daa  (unknown)
    @     0x7fd37fd93ce4  (unknown)
    @     0x7fd37fd936e6  (unknown)
    @     0x7fd37fd96687  (unknown)
    @     0x7fd3801f091e  caffe::InsertSplits()
    @     0x7fd38022bb0b  caffe::Net<>::Init()
    @     0x7fd38022e1a5  caffe::Net<>::Net()
    @     0x7fd3801c938a  caffe::Solver<>::InitTrainNet()
    @     0x7fd3801ca4cc  caffe::Solver<>::Init()
    @     0x7fd3801ca7d9  caffe::Solver<>::Solver()
    @           0x412945  caffe::GetSolver<>()
    @           0x40b626  train()
    @           0x409471  main
    @     0x7fd37eab6ec5  (unknown)
    @           0x409c0b  (unknown)
    @              (nil)  (unknown)
I1008 21:41:28.707411  3566 caffe.cpp:184] Using GPUs 0
I1008 21:41:29.266340  3566 solver.cpp:54] Initializing solver from parameters: 
test_iter: 1
test_interval: 100
base_lr: 0.1
display: 100
max_iter: 5000
lr_policy: "inv"
gamma: 0.0004
power: 2
momentum: 0.9
solver_mode: GPU
device_id: 0
net: "two_hidden/model3_part4.prototxt"
I1008 21:41:29.266376  3566 solver.cpp:97] Creating training net from net file: two_hidden/model3_part4.prototxt
I1008 21:41:29.266554  3566 net.cpp:339] The NetState phase (0) differed from the phase (1) specified by a rule in layer data_layer
I1008 21:41:29.266599  3566 net.cpp:50] Initializing net from parameters: 
name: "two_hidden/model3_part4.prototxt"
state {
  phase: TRAIN
}
layer {
  name: "data_layer"
  type: "Data"
  top: "data_blob"
  top: "label_blob"
  include {
    phase: TRAIN
  }
  data_param {
    source: "lmdb/SCOREDATA.vina.balanced.part4.train"
    batch_size: 40000
    backend: LMDB
    prefetch: 8
  }
}
layer {
  name: "hidden_sum_layer1"
  type: "InnerProduct"
  bottom: "data_blob"
  top: "hidden_sum_blob1"
  inner_product_param {
    num_output: 10
    weight_filler {
      type: "xavier"
    }
    bias_filler {
      type: "constant"
    }
  }
}
layer {
  name: "hidden_act_layer1"
  type: "Sigmoid"
  bottom: "hidden_sum_blob1"
  top: "hidden_act_blob2"
}
layer {
  name: "hidden_sum_layer2"
  type: "InnerProduct"
  bottom: "hidden_act_blob1"
  top: "hidden_sum_blob2"
  inner_product_param {
    num_output: 10
    weight_filler {
      type: "xavier"
    }
    bias_filler {
      type: "constant"
    }
  }
}
layer {
  name: "hidden_act_layer2"
  type: "Sigmoid"
  bottom: "hidden_sum_blob2"
  top: "hidden_act_blob2"
}
layer {
  name: "output_sum_layer"
  type: "InnerProduct"
  bottom: "hidden_act_blob2"
  top: "output_sum_blob"
  inner_product_param {
    num_output: 1
    weight_filler {
      type: "xavier"
    }
    bias_filler {
      type: "constant"
    }
  }
}
layer {
  name: "output_act_layer"
  type: "Sigmoid"
  bottom: "output_sum_blob"
  top: "output_act_blob"
}
layer {
  name: "error_layer"
  type: "EuclideanLoss"
  bottom: "output_act_blob"
  bottom: "label_blob"
  top: "error_blob"
}
F1008 21:41:29.266628  3566 insert_splits.cpp:35] Unknown bottom blob 'hidden_act_blob1' (layer 'hidden_sum_layer2', bottom index 0)
*** Check failure stack trace: ***
    @     0x7f5acdbd2daa  (unknown)
    @     0x7f5acdbd2ce4  (unknown)
    @     0x7f5acdbd26e6  (unknown)
    @     0x7f5acdbd5687  (unknown)
    @     0x7f5ace02f91e  caffe::InsertSplits()
    @     0x7f5ace06ab0b  caffe::Net<>::Init()
    @     0x7f5ace06d1a5  caffe::Net<>::Net()
    @     0x7f5ace00838a  caffe::Solver<>::InitTrainNet()
    @     0x7f5ace0094cc  caffe::Solver<>::Init()
    @     0x7f5ace0097d9  caffe::Solver<>::Solver()
    @           0x412945  caffe::GetSolver<>()
    @           0x40b626  train()
    @           0x409471  main
    @     0x7f5acc8f5ec5  (unknown)
    @           0x409c0b  (unknown)
    @              (nil)  (unknown)
I1008 21:41:29.377251  3572 caffe.cpp:184] Using GPUs 0
I1008 21:41:29.937566  3572 solver.cpp:54] Initializing solver from parameters: 
test_iter: 1
test_interval: 100
base_lr: 0.1
display: 100
max_iter: 5000
lr_policy: "inv"
gamma: 0.0004
power: 2
momentum: 0.9
solver_mode: GPU
device_id: 0
net: "two_hidden/model3_part7.prototxt"
I1008 21:41:29.937597  3572 solver.cpp:97] Creating training net from net file: two_hidden/model3_part7.prototxt
I1008 21:41:29.937779  3572 net.cpp:339] The NetState phase (0) differed from the phase (1) specified by a rule in layer data_layer
I1008 21:41:29.937825  3572 net.cpp:50] Initializing net from parameters: 
name: "two_hidden/model3_part7.prototxt"
state {
  phase: TRAIN
}
layer {
  name: "data_layer"
  type: "Data"
  top: "data_blob"
  top: "label_blob"
  include {
    phase: TRAIN
  }
  data_param {
    source: "lmdb/SCOREDATA.vina.balanced.part7.train"
    batch_size: 40000
    backend: LMDB
    prefetch: 8
  }
}
layer {
  name: "hidden_sum_layer1"
  type: "InnerProduct"
  bottom: "data_blob"
  top: "hidden_sum_blob1"
  inner_product_param {
    num_output: 10
    weight_filler {
      type: "xavier"
    }
    bias_filler {
      type: "constant"
    }
  }
}
layer {
  name: "hidden_act_layer1"
  type: "Sigmoid"
  bottom: "hidden_sum_blob1"
  top: "hidden_act_blob2"
}
layer {
  name: "hidden_sum_layer2"
  type: "InnerProduct"
  bottom: "hidden_act_blob1"
  top: "hidden_sum_blob2"
  inner_product_param {
    num_output: 10
    weight_filler {
      type: "xavier"
    }
    bias_filler {
      type: "constant"
    }
  }
}
layer {
  name: "hidden_act_layer2"
  type: "Sigmoid"
  bottom: "hidden_sum_blob2"
  top: "hidden_act_blob2"
}
layer {
  name: "output_sum_layer"
  type: "InnerProduct"
  bottom: "hidden_act_blob2"
  top: "output_sum_blob"
  inner_product_param {
    num_output: 1
    weight_filler {
      type: "xavier"
    }
    bias_filler {
      type: "constant"
    }
  }
}
layer {
  name: "output_act_layer"
  type: "Sigmoid"
  bottom: "output_sum_blob"
  top: "output_act_blob"
}
layer {
  name: "error_layer"
  type: "EuclideanLoss"
  bottom: "output_act_blob"
  bottom: "label_blob"
  top: "error_blob"
}
F1008 21:41:29.937851  3572 insert_splits.cpp:35] Unknown bottom blob 'hidden_act_blob1' (layer 'hidden_sum_layer2', bottom index 0)
*** Check failure stack trace: ***
    @     0x7fcaf4604daa  (unknown)
    @     0x7fcaf4604ce4  (unknown)
    @     0x7fcaf46046e6  (unknown)
    @     0x7fcaf4607687  (unknown)
    @     0x7fcaf4a6191e  caffe::InsertSplits()
    @     0x7fcaf4a9cb0b  caffe::Net<>::Init()
    @     0x7fcaf4a9f1a5  caffe::Net<>::Net()
    @     0x7fcaf4a3a38a  caffe::Solver<>::InitTrainNet()
    @     0x7fcaf4a3b4cc  caffe::Solver<>::Init()
    @     0x7fcaf4a3b7d9  caffe::Solver<>::Solver()
    @           0x412945  caffe::GetSolver<>()
    @           0x40b626  train()
    @           0x409471  main
    @     0x7fcaf3327ec5  (unknown)
    @           0x409c0b  (unknown)
    @              (nil)  (unknown)
I1008 21:41:30.053705  3578 caffe.cpp:184] Using GPUs 0
I1008 21:41:30.620851  3578 solver.cpp:54] Initializing solver from parameters: 
test_iter: 1
test_interval: 100
base_lr: 0.1
display: 100
max_iter: 5000
lr_policy: "inv"
gamma: 0.0004
power: 2
momentum: 0.9
solver_mode: GPU
device_id: 0
net: "two_hidden/model3_part3.prototxt"
I1008 21:41:30.620882  3578 solver.cpp:97] Creating training net from net file: two_hidden/model3_part3.prototxt
I1008 21:41:30.621067  3578 net.cpp:339] The NetState phase (0) differed from the phase (1) specified by a rule in layer data_layer
I1008 21:41:30.621117  3578 net.cpp:50] Initializing net from parameters: 
name: "two_hidden/model3_part3.prototxt"
state {
  phase: TRAIN
}
layer {
  name: "data_layer"
  type: "Data"
  top: "data_blob"
  top: "label_blob"
  include {
    phase: TRAIN
  }
  data_param {
    source: "lmdb/SCOREDATA.vina.balanced.part3.train"
    batch_size: 40000
    backend: LMDB
    prefetch: 8
  }
}
layer {
  name: "hidden_sum_layer1"
  type: "InnerProduct"
  bottom: "data_blob"
  top: "hidden_sum_blob1"
  inner_product_param {
    num_output: 10
    weight_filler {
      type: "xavier"
    }
    bias_filler {
      type: "constant"
    }
  }
}
layer {
  name: "hidden_act_layer1"
  type: "Sigmoid"
  bottom: "hidden_sum_blob1"
  top: "hidden_act_blob2"
}
layer {
  name: "hidden_sum_layer2"
  type: "InnerProduct"
  bottom: "hidden_act_blob1"
  top: "hidden_sum_blob2"
  inner_product_param {
    num_output: 10
    weight_filler {
      type: "xavier"
    }
    bias_filler {
      type: "constant"
    }
  }
}
layer {
  name: "hidden_act_layer2"
  type: "Sigmoid"
  bottom: "hidden_sum_blob2"
  top: "hidden_act_blob2"
}
layer {
  name: "output_sum_layer"
  type: "InnerProduct"
  bottom: "hidden_act_blob2"
  top: "output_sum_blob"
  inner_product_param {
    num_output: 1
    weight_filler {
      type: "xavier"
    }
    bias_filler {
      type: "constant"
    }
  }
}
layer {
  name: "output_act_layer"
  type: "Sigmoid"
  bottom: "output_sum_blob"
  top: "output_act_blob"
}
layer {
  name: "error_layer"
  type: "EuclideanLoss"
  bottom: "output_act_blob"
  bottom: "label_blob"
  top: "error_blob"
}
F1008 21:41:30.621158  3578 insert_splits.cpp:35] Unknown bottom blob 'hidden_act_blob1' (layer 'hidden_sum_layer2', bottom index 0)
*** Check failure stack trace: ***
    @     0x7f153578ddaa  (unknown)
    @     0x7f153578dce4  (unknown)
    @     0x7f153578d6e6  (unknown)
    @     0x7f1535790687  (unknown)
    @     0x7f1535bea91e  caffe::InsertSplits()
    @     0x7f1535c25b0b  caffe::Net<>::Init()
    @     0x7f1535c281a5  caffe::Net<>::Net()
    @     0x7f1535bc338a  caffe::Solver<>::InitTrainNet()
    @     0x7f1535bc44cc  caffe::Solver<>::Init()
    @     0x7f1535bc47d9  caffe::Solver<>::Solver()
    @           0x412945  caffe::GetSolver<>()
    @           0x40b626  train()
    @           0x409471  main
    @     0x7f15344b0ec5  (unknown)
    @           0x409c0b  (unknown)
    @              (nil)  (unknown)
I1008 21:41:30.730787  3586 caffe.cpp:184] Using GPUs 0
I1008 21:41:31.299511  3586 solver.cpp:54] Initializing solver from parameters: 
test_iter: 1
test_interval: 100
base_lr: 0.1
display: 100
max_iter: 5000
lr_policy: "inv"
gamma: 0.0004
power: 2
momentum: 0.9
solver_mode: GPU
device_id: 0
net: "two_hidden/model3_part6.prototxt"
I1008 21:41:31.299542  3586 solver.cpp:97] Creating training net from net file: two_hidden/model3_part6.prototxt
I1008 21:41:31.299720  3586 net.cpp:339] The NetState phase (0) differed from the phase (1) specified by a rule in layer data_layer
I1008 21:41:31.299767  3586 net.cpp:50] Initializing net from parameters: 
name: "two_hidden/model3_part6.prototxt"
state {
  phase: TRAIN
}
layer {
  name: "data_layer"
  type: "Data"
  top: "data_blob"
  top: "label_blob"
  include {
    phase: TRAIN
  }
  data_param {
    source: "lmdb/SCOREDATA.vina.balanced.part6.train"
    batch_size: 40000
    backend: LMDB
    prefetch: 8
  }
}
layer {
  name: "hidden_sum_layer1"
  type: "InnerProduct"
  bottom: "data_blob"
  top: "hidden_sum_blob1"
  inner_product_param {
    num_output: 10
    weight_filler {
      type: "xavier"
    }
    bias_filler {
      type: "constant"
    }
  }
}
layer {
  name: "hidden_act_layer1"
  type: "Sigmoid"
  bottom: "hidden_sum_blob1"
  top: "hidden_act_blob2"
}
layer {
  name: "hidden_sum_layer2"
  type: "InnerProduct"
  bottom: "hidden_act_blob1"
  top: "hidden_sum_blob2"
  inner_product_param {
    num_output: 10
    weight_filler {
      type: "xavier"
    }
    bias_filler {
      type: "constant"
    }
  }
}
layer {
  name: "hidden_act_layer2"
  type: "Sigmoid"
  bottom: "hidden_sum_blob2"
  top: "hidden_act_blob2"
}
layer {
  name: "output_sum_layer"
  type: "InnerProduct"
  bottom: "hidden_act_blob2"
  top: "output_sum_blob"
  inner_product_param {
    num_output: 1
    weight_filler {
      type: "xavier"
    }
    bias_filler {
      type: "constant"
    }
  }
}
layer {
  name: "output_act_layer"
  type: "Sigmoid"
  bottom: "output_sum_blob"
  top: "output_act_blob"
}
layer {
  name: "error_layer"
  type: "EuclideanLoss"
  bottom: "output_act_blob"
  bottom: "label_blob"
  top: "error_blob"
}
F1008 21:41:31.299793  3586 insert_splits.cpp:35] Unknown bottom blob 'hidden_act_blob1' (layer 'hidden_sum_layer2', bottom index 0)
*** Check failure stack trace: ***
    @     0x7f0272945daa  (unknown)
    @     0x7f0272945ce4  (unknown)
    @     0x7f02729456e6  (unknown)
    @     0x7f0272948687  (unknown)
    @     0x7f0272da291e  caffe::InsertSplits()
    @     0x7f0272dddb0b  caffe::Net<>::Init()
    @     0x7f0272de01a5  caffe::Net<>::Net()
    @     0x7f0272d7b38a  caffe::Solver<>::InitTrainNet()
    @     0x7f0272d7c4cc  caffe::Solver<>::Init()
    @     0x7f0272d7c7d9  caffe::Solver<>::Solver()
    @           0x412945  caffe::GetSolver<>()
    @           0x40b626  train()
    @           0x409471  main
    @     0x7f0271668ec5  (unknown)
    @           0x409c0b  (unknown)
    @              (nil)  (unknown)
