…
gamma: 0.001
power: 1
momentum: 0.9
solver_mode: GPU
device_id: 0
net: "inv_lr/model2_full.prototxt"
I1008 19:54:59.193650  3165 solver.cpp:97] Creating training net from net file: inv_lr/model2_full.prototxt
I1008 19:54:59.193825  3165 net.cpp:50] Initializing net from parameters: 
name: "inv_lr/model2_full.prototxt"
state {
  phase: TRAIN
}
layer {
  name: "data_layer"
  type: "Data"
  top: "data_blob"
  top: "label_blob"
  data_param {
    source: "lmdb/SCOREDATA.vina.balanced.full"
    batch_size: 40000
    backend: LMDB
    prefetch: 8
  }
}
layer {
  name: "hidden_sum_layer"
  type: "InnerProduct"
  bottom: "data_blob"
  top: "hidden_sum_blob"
  inner_product_param {
    num_output: 10
    weight_filler {
      type: "xavier"
    }
    bias_filler {
      type: "constant"
    }
  }
}
layer {
  name: "hidden_act_layer"
  type: "Sigmoid"
  bottom: "hidden_sum_blob"
  top: "hidden_act_blob"
}
layer {
  name: "output_sum_layer"
  type: "InnerProduct"
  bottom: "hidden_act_blob"
  top: "output_sum_blob"
  inner_product_param {
    num_output: 1
    weight_filler {
      type: "xavier"
    }
    bias_filler {
      type: "constant"
    }
  }
}
layer {
  name: "output_act_layer"
  type: "Sigmoid"
  bottom: "output_sum_blob"
  top: "output_act_blob"
}
layer {
  name: "error_layer"
  type: "EuclideanLoss"
  bottom: "output_act_blob"
  bottom: "label_blob"
  top: "error_blob"
}
I1008 19:54:59.193863  3165 layer_factory.hpp:76] Creating layer data_layer
I1008 19:54:59.220233  3165 net.cpp:110] Creating Layer data_layer
I1008 19:54:59.220269  3165 net.cpp:433] data_layer -> data_blob
I1008 19:54:59.220293  3165 net.cpp:433] data_layer -> label_blob
I1008 19:54:59.220903  3170 db_lmdb.cpp:23] Opened lmdb lmdb/SCOREDATA.vina.balanced.full
I1008 19:54:59.907260  3165 data_layer.cpp:45] output data size: 40000,61,1,1
I1008 19:54:59.917773  3165 net.cpp:155] Setting up data_layer
I1008 19:54:59.917803  3165 net.cpp:163] Top shape: 40000 61 1 1 (2440000)
I1008 19:54:59.917807  3165 net.cpp:163] Top shape: 40000 (40000)
I1008 19:54:59.917814  3165 layer_factory.hpp:76] Creating layer hidden_sum_layer
I1008 19:54:59.917825  3165 net.cpp:110] Creating Layer hidden_sum_layer
I1008 19:54:59.917829  3165 net.cpp:477] hidden_sum_layer <- data_blob
I1008 19:54:59.917839  3165 net.cpp:433] hidden_sum_layer -> hidden_sum_blob
I1008 19:54:59.918211  3165 net.cpp:155] Setting up hidden_sum_layer
I1008 19:54:59.918220  3165 net.cpp:163] Top shape: 40000 10 (400000)
I1008 19:54:59.918231  3165 layer_factory.hpp:76] Creating layer hidden_act_layer
I1008 19:54:59.918237  3165 net.cpp:110] Creating Layer hidden_act_layer
I1008 19:54:59.918241  3165 net.cpp:477] hidden_act_layer <- hidden_sum_blob
I1008 19:54:59.918243  3165 net.cpp:433] hidden_act_layer -> hidden_act_blob
I1008 19:55:03.156158  3165 net.cpp:155] Setting up hidden_act_layer
I1008 19:55:03.156184  3165 net.cpp:163] Top shape: 40000 10 (400000)
I1008 19:55:03.156189  3165 layer_factory.hpp:76] Creating layer output_sum_layer
I1008 19:55:03.156198  3165 net.cpp:110] Creating Layer output_sum_layer
I1008 19:55:03.156203  3165 net.cpp:477] output_sum_layer <- hidden_act_blob
I1008 19:55:03.156208  3165 net.cpp:433] output_sum_layer -> output_sum_blob
I1008 19:55:03.156318  3165 net.cpp:155] Setting up output_sum_layer
I1008 19:55:03.156324  3165 net.cpp:163] Top shape: 40000 1 (40000)
I1008 19:55:03.156332  3165 layer_factory.hpp:76] Creating layer output_act_layer
I1008 19:55:03.156347  3165 net.cpp:110] Creating Layer output_act_layer
I1008 19:55:03.156348  3165 net.cpp:477] output_act_layer <- output_sum_blob
I1008 19:55:03.156352  3165 net.cpp:433] output_act_layer -> output_act_blob
I1008 19:55:03.156414  3165 net.cpp:155] Setting up output_act_layer
I1008 19:55:03.156419  3165 net.cpp:163] Top shape: 40000 1 (40000)
I1008 19:55:03.156420  3165 layer_factory.hpp:76] Creating layer error_layer
I1008 19:55:03.156425  3165 net.cpp:110] Creating Layer error_layer
I1008 19:55:03.156457  3165 net.cpp:477] error_layer <- output_act_blob
I1008 19:55:03.156461  3165 net.cpp:477] error_layer <- label_blob
I1008 19:55:03.156463  3165 net.cpp:433] error_layer -> error_blob
I1008 19:55:03.156523  3165 net.cpp:155] Setting up error_layer
…
