…
I1008 21:44:55.782765  3632 solver.cpp:97] Creating training net from net file: two_hidden/model3_part2.prototxt
I1008 21:44:55.782943  3632 net.cpp:339] The NetState phase (0) differed from the phase (1) specified by a rule in layer data_layer
I1008 21:44:55.782987  3632 net.cpp:50] Initializing net from parameters: 
name: "two_hidden/model3_part2.prototxt"
state {
  phase: TRAIN
}
layer {
  name: "data_layer"
  type: "Data"
  top: "data_blob"
  top: "label_blob"
  include {
    phase: TRAIN
  }
  data_param {
    source: "lmdb/SCOREDATA.vina.balanced.part2.train"
    batch_size: 40000
    backend: LMDB
    prefetch: 8
  }
}
layer {
  name: "hidden_sum_layer1"
  type: "InnerProduct"
  bottom: "data_blob"
  top: "hidden_sum_blob1"
  inner_product_param {
    num_output: 10
    weight_filler {
      type: "xavier"
    }
    bias_filler {
      type: "constant"
    }
  }
}
layer {
  name: "hidden_act_layer1"
  type: "Sigmoid"
  bottom: "hidden_sum_blob1"
  top: "hidden_act_blob1"
}
layer {
  name: "hidden_sum_layer2"
  type: "InnerProduct"
  bottom: "hidden_act_blob1"
  top: "hidden_sum_blob2"
  inner_product_param {
    num_output: 5
    weight_filler {
      type: "xavier"
    }
    bias_filler {
      type: "constant"
    }
  }
}
layer {
  name: "hidden_act_layer2"
  type: "Sigmoid"
  bottom: "hidden_sum_blob2"
  top: "hidden_act_blob2"
}
layer {
  name: "output_sum_layer"
  type: "InnerProduct"
  bottom: "hidden_act_blob2"
  top: "output_sum_blob"
  inner_product_param {
    num_output: 1
    weight_filler {
      type: "xavier"
    }
    bias_filler {
      type: "constant"
    }
  }
}
layer {
  name: "output_act_layer"
  type: "Sigmoid"
  bottom: "output_sum_blob"
  top: "output_act_blob"
}
layer {
  name: "error_layer"
  type: "EuclideanLoss"
  bottom: "output_act_blob"
  bottom: "label_blob"
  top: "error_blob"
}
I1008 21:44:55.783030  3632 layer_factory.hpp:76] Creating layer data_layer
I1008 21:44:55.809625  3632 net.cpp:110] Creating Layer data_layer
I1008 21:44:55.809659  3632 net.cpp:433] data_layer -> data_blob
I1008 21:44:55.809707  3632 net.cpp:433] data_layer -> label_blob
I1008 21:44:55.810286  3636 db_lmdb.cpp:23] Opened lmdb lmdb/SCOREDATA.vina.balanced.part2.train
I1008 21:44:56.497562  3632 data_layer.cpp:45] output data size: 40000,61,1,1
I1008 21:44:56.507979  3632 net.cpp:155] Setting up data_layer
I1008 21:44:56.508021  3632 net.cpp:163] Top shape: 40000 61 1 1 (2440000)
I1008 21:44:56.508026  3632 net.cpp:163] Top shape: 40000 (40000)
I1008 21:44:56.508044  3632 layer_factory.hpp:76] Creating layer hidden_sum_layer1
I1008 21:44:56.508055  3632 net.cpp:110] Creating Layer hidden_sum_layer1
I1008 21:44:56.508059  3632 net.cpp:477] hidden_sum_layer1 <- data_blob
I1008 21:44:56.508069  3632 net.cpp:433] hidden_sum_layer1 -> hidden_sum_blob1
I1008 21:44:56.508484  3632 net.cpp:155] Setting up hidden_sum_layer1
I1008 21:44:56.508496  3632 net.cpp:163] Top shape: 40000 10 (400000)
I1008 21:44:56.508518  3632 layer_factory.hpp:76] Creating layer hidden_act_layer1
I1008 21:44:56.508536  3632 net.cpp:110] Creating Layer hidden_act_layer1
I1008 21:44:56.508538  3632 net.cpp:477] hidden_act_layer1 <- hidden_sum_blob1
I1008 21:44:56.508543  3632 net.cpp:433] hidden_act_layer1 -> hidden_act_blob1
I1008 21:44:59.736258  3632 net.cpp:155] Setting up hidden_act_layer1
I1008 21:44:59.736289  3632 net.cpp:163] Top shape: 40000 10 (400000)
I1008 21:44:59.736292  3632 layer_factory.hpp:76] Creating layer hidden_sum_layer2
I1008 21:44:59.736302  3632 net.cpp:110] Creating Layer hidden_sum_layer2
I1008 21:44:59.736305  3632 net.cpp:477] hidden_sum_layer2 <- hidden_act_blob1
I1008 21:44:59.736311  3632 net.cpp:433] hidden_sum_layer2 -> hidden_sum_blob2
I1008 21:44:59.736423  3632 net.cpp:155] Setting up hidden_sum_layer2
I1008 21:44:59.736429  3632 net.cpp:163] Top shape: 40000 5 (200000)
I1008 21:44:59.736454  3632 layer_factory.hpp:76] Creating layer hidden_act_layer2
I1008 21:44:59.736459  3632 net.cpp:110] Creating Layer hidden_act_layer2
I1008 21:44:59.736461  3632 net.cpp:477] hidden_act_layer2 <- hidden_sum_blob2
I1008 21:44:59.736464  3632 net.cpp:433] hidden_act_layer2 -> hidden_act_blob2
I1008 21:44:59.736552  3632 net.cpp:155] Setting up hidden_act_layer2
I1008 21:44:59.736557  3632 net.cpp:163] Top shape: 40000 5 (200000)
I1008 21:44:59.736568  3632 layer_factory.hpp:76] Creating layer output_sum_layer
I1008 21:44:59.736573  3632 net.cpp:110] Creating Layer output_sum_layer
I1008 21:44:59.736575  3632 net.cpp:477] output_sum_layer <- hidden_act_blob2
I1008 21:44:59.736589  3632 net.cpp:433] output_sum_layer -> output_sum_blob
I1008 21:44:59.736667  3632 net.cpp:155] Setting up output_sum_layer
I1008 21:44:59.736672  3632 net.cpp:163] Top shape: 40000 1 (40000)
I1008 21:44:59.736688  3632 layer_factory.hpp:76] Creating layer output_act_layer
I1008 21:44:59.736692  3632 net.cpp:110] Creating Layer output_act_layer
I1008 21:44:59.736695  3632 net.cpp:477] output_act_layer <- output_sum_blob
I1008 21:44:59.736697  3632 net.cpp:433] output_act_layer -> output_act_blob
I1008 21:44:59.736840  3632 net.cpp:155] Setting up output_act_layer
I1008 21:44:59.736846  3632 net.cpp:163] Top shape: 40000 1 (40000)
I1008 21:44:59.736860  3632 layer_factory.hpp:76] Creating layer error_layer
I1008 21:44:59.736865  3632 net.cpp:110] Creating Layer error_layer
I1008 21:44:59.736867  3632 net.cpp:477] error_layer <- output_act_blob
I1008 21:44:59.736871  3632 net.cpp:477] error_layer <- label_blob
I1008 21:44:59.736874  3632 net.cpp:433] error_layer -> error_blob
I1008 21:44:59.736899  3632 net.cpp:155] Setting up error_layer
…
I1008 21:44:59.737097  3632 solver.cpp:187] Creating test net (#0) specified by net file: two_hidden/model3_part2.prototxt
I1008 21:44:59.737119  3632 net.cpp:339] The NetState phase (1) differed from the phase (0) specified by a rule in layer data_layer
I1008 21:44:59.737164  3632 net.cpp:50] Initializing net from parameters: 
name: "two_hidden/model3_part2.prototxt"
state {
  phase: TEST
}
layer {
  name: "data_layer"
  type: "Data"
  top: "data_blob"
  top: "label_blob"
  include {
    phase: TEST
  }
  data_param {
    source: "lmdb/SCOREDATA.vina.balanced.part2.test"
    batch_size: 4000
    backend: LMDB
    prefetch: 8
  }
}
layer {
  name: "hidden_sum_layer1"
  type: "InnerProduct"
  bottom: "data_blob"
  top: "hidden_sum_blob1"
  inner_product_param {
    num_output: 10
    weight_filler {
      type: "xavier"
    }
    bias_filler {
      type: "constant"
    }
  }
}
layer {
  name: "hidden_act_layer1"
  type: "Sigmoid"
  bottom: "hidden_sum_blob1"
  top: "hidden_act_blob1"
}
layer {
  name: "hidden_sum_layer2"
  type: "InnerProduct"
  bottom: "hidden_act_blob1"
  top: "hidden_sum_blob2"
  inner_product_param {
    num_output: 5
    weight_filler {
      type: "xavier"
    }
    bias_filler {
      type: "constant"
    }
  }
}
layer {
  name: "hidden_act_layer2"
  type: "Sigmoid"
  bottom: "hidden_sum_blob2"
  top: "hidden_act_blob2"
}
layer {
  name: "output_sum_layer"
  type: "InnerProduct"
  bottom: "hidden_act_blob2"
  top: "output_sum_blob"
  inner_product_param {
    num_output: 1
    weight_filler {
      type: "xavier"
    }
    bias_filler {
      type: "constant"
    }
  }
}
layer {
  name: "output_act_layer"
  type: "Sigmoid"
  bottom: "output_sum_blob"
  top: "output_act_blob"
}
layer {
  name: "error_layer"
  type: "EuclideanLoss"
  bottom: "output_act_blob"
  bottom: "label_blob"
  top: "error_blob"
}
I1008 21:44:59.737206  3632 layer_factory.hpp:76] Creating layer data_layer
I1008 21:44:59.739662  3632 net.cpp:110] Creating Layer data_layer
I1008 21:44:59.739670  3632 net.cpp:433] data_layer -> data_blob
I1008 21:44:59.739677  3632 net.cpp:433] data_layer -> label_blob
I1008 21:44:59.740243  3638 db_lmdb.cpp:23] Opened lmdb lmdb/SCOREDATA.vina.balanced.part2.test
I1008 21:44:59.740319  3632 data_layer.cpp:45] output data size: 4000,61,1,1
I1008 21:44:59.742236  3632 net.cpp:155] Setting up data_layer
I1008 21:44:59.742250  3632 net.cpp:163] Top shape: 4000 61 1 1 (244000)
I1008 21:44:59.742254  3632 net.cpp:163] Top shape: 4000 (4000)
I1008 21:44:59.742259  3632 layer_factory.hpp:76] Creating layer hidden_sum_layer1
I1008 21:44:59.742267  3632 net.cpp:110] Creating Layer hidden_sum_layer1
I1008 21:44:59.742270  3632 net.cpp:477] hidden_sum_layer1 <- data_blob
I1008 21:44:59.742274  3632 net.cpp:433] hidden_sum_layer1 -> hidden_sum_blob1
I1008 21:44:59.742398  3632 net.cpp:155] Setting up hidden_sum_layer1
I1008 21:44:59.742404  3632 net.cpp:163] Top shape: 4000 10 (40000)
I1008 21:44:59.742411  3632 layer_factory.hpp:76] Creating layer hidden_act_layer1
I1008 21:44:59.742416  3632 net.cpp:110] Creating Layer hidden_act_layer1
I1008 21:44:59.742419  3632 net.cpp:477] hidden_act_layer1 <- hidden_sum_blob1
I1008 21:44:59.742421  3632 net.cpp:433] hidden_act_layer1 -> hidden_act_blob1
I1008 21:44:59.742486  3632 net.cpp:155] Setting up hidden_act_layer1
I1008 21:44:59.742491  3632 net.cpp:163] Top shape: 4000 10 (40000)
I1008 21:44:59.742493  3632 layer_factory.hpp:76] Creating layer hidden_sum_layer2
I1008 21:44:59.742496  3632 net.cpp:110] Creating Layer hidden_sum_layer2
I1008 21:44:59.742499  3632 net.cpp:477] hidden_sum_layer2 <- hidden_act_blob1
I1008 21:44:59.742502  3632 net.cpp:433] hidden_sum_layer2 -> hidden_sum_blob2
I1008 21:44:59.742564  3632 net.cpp:155] Setting up hidden_sum_layer2
I1008 21:44:59.742569  3632 net.cpp:163] Top shape: 4000 5 (20000)
I1008 21:44:59.742574  3632 layer_factory.hpp:76] Creating layer hidden_act_layer2
I1008 21:44:59.742578  3632 net.cpp:110] Creating Layer hidden_act_layer2
I1008 21:44:59.742580  3632 net.cpp:477] hidden_act_layer2 <- hidden_sum_blob2
I1008 21:44:59.742584  3632 net.cpp:433] hidden_act_layer2 -> hidden_act_blob2
I1008 21:44:59.742636  3632 net.cpp:155] Setting up hidden_act_layer2
I1008 21:44:59.742640  3632 net.cpp:163] Top shape: 4000 5 (20000)
I1008 21:44:59.742643  3632 layer_factory.hpp:76] Creating layer output_sum_layer
I1008 21:44:59.742647  3632 net.cpp:110] Creating Layer output_sum_layer
I1008 21:44:59.742650  3632 net.cpp:477] output_sum_layer <- hidden_act_blob2
I1008 21:44:59.742652  3632 net.cpp:433] output_sum_layer -> output_sum_blob
I1008 21:44:59.742707  3632 net.cpp:155] Setting up output_sum_layer
I1008 21:44:59.742712  3632 net.cpp:163] Top shape: 4000 1 (4000)
I1008 21:44:59.742717  3632 layer_factory.hpp:76] Creating layer output_act_layer
I1008 21:44:59.742722  3632 net.cpp:110] Creating Layer output_act_layer
I1008 21:44:59.742723  3632 net.cpp:477] output_act_layer <- output_sum_blob
I1008 21:44:59.742727  3632 net.cpp:433] output_act_layer -> output_act_blob
I1008 21:44:59.742774  3632 net.cpp:155] Setting up output_act_layer
I1008 21:44:59.742780  3632 net.cpp:163] Top shape: 4000 1 (4000)
I1008 21:44:59.742782  3632 layer_factory.hpp:76] Creating layer error_layer
I1008 21:44:59.742786  3632 net.cpp:110] Creating Layer error_layer
I1008 21:44:59.742789  3632 net.cpp:477] error_layer <- output_act_blob
I1008 21:44:59.742802  3632 net.cpp:477] error_layer <- label_blob
I1008 21:44:59.742806  3632 net.cpp:433] error_layer -> error_blob
I1008 21:44:59.742828  3632 net.cpp:155] Setting up error_layer
…
