…
I0929 21:55:24.424031 24303 solver.cpp:97] Creating training net from net file: model/NNScore/nnscore_model_0.prototxt
I0929 21:55:24.424201 24303 net.cpp:339] The NetState phase (0) differed from the phase (1) specified by a rule in layer data_layer
I0929 21:55:24.424247 24303 net.cpp:50] Initializing net from parameters: 
name: "nnscore_model_0.prototxt"
state {
  phase: TRAIN
}
layer {
  name: "data_layer"
  type: "Data"
  top: "data_blob"
  top: "label_blob"
  include {
    phase: TRAIN
  }
  data_param {
    source: "lmdb/SCOREDATA.vina.balanced.0.train"
    batch_size: 1000
    backend: LMDB
  }
}
layer {
  name: "hidden_sum_layer"
  type: "InnerProduct"
  bottom: "data_blob"
  top: "hidden_sum_blob"
  inner_product_param {
    num_output: 10
    weight_filler {
      type: "xavier"
    }
    bias_filler {
      type: "constant"
    }
  }
}
layer {
  name: "hidden_act_layer"
  type: "Sigmoid"
  bottom: "hidden_sum_blob"
  top: "hidden_act_blob"
}
layer {
  name: "output_sum_layer"
  type: "InnerProduct"
  bottom: "hidden_act_blob"
  top: "output_sum_blob"
  inner_product_param {
    num_output: 1
    weight_filler {
      type: "xavier"
    }
    bias_filler {
      type: "constant"
    }
  }
}
layer {
  name: "output_act_layer"
  type: "Sigmoid"
  bottom: "output_sum_blob"
  top: "output_act_blob"
}
layer {
  name: "error_layer"
  type: "EuclideanLoss"
  bottom: "output_act_blob"
  bottom: "label_blob"
  top: "error_blob"
}
I0929 21:55:24.424330 24303 layer_factory.hpp:76] Creating layer data_layer
I0929 21:55:24.425039 24303 net.cpp:110] Creating Layer data_layer
I0929 21:55:24.425068 24303 net.cpp:433] data_layer -> data_blob
I0929 21:55:24.425103 24303 net.cpp:433] data_layer -> label_blob
I0929 21:55:24.425680 24307 db_lmdb.cpp:23] Opened lmdb lmdb/SCOREDATA.vina.balanced.0.train
I0929 21:55:25.112586 24303 data_layer.cpp:45] output data size: 1000,61,1,1
I0929 21:55:25.113553 24303 net.cpp:155] Setting up data_layer
I0929 21:55:25.113571 24303 net.cpp:163] Top shape: 1000 61 1 1 (61000)
I0929 21:55:25.113575 24303 net.cpp:163] Top shape: 1000 (1000)
I0929 21:55:25.113591 24303 layer_factory.hpp:76] Creating layer hidden_sum_layer
I0929 21:55:25.113602 24303 net.cpp:110] Creating Layer hidden_sum_layer
I0929 21:55:25.113606 24303 net.cpp:477] hidden_sum_layer <- data_blob
I0929 21:55:25.113615 24303 net.cpp:433] hidden_sum_layer -> hidden_sum_blob
I0929 21:55:25.113713 24303 net.cpp:155] Setting up hidden_sum_layer
I0929 21:55:25.113718 24303 net.cpp:163] Top shape: 1000 10 (10000)
I0929 21:55:25.113729 24303 layer_factory.hpp:76] Creating layer hidden_act_layer
I0929 21:55:25.113735 24303 net.cpp:110] Creating Layer hidden_act_layer
I0929 21:55:25.113737 24303 net.cpp:477] hidden_act_layer <- hidden_sum_blob
I0929 21:55:25.113750 24303 net.cpp:433] hidden_act_layer -> hidden_act_blob
I0929 21:55:28.343932 24303 net.cpp:155] Setting up hidden_act_layer
I0929 21:55:28.343963 24303 net.cpp:163] Top shape: 1000 10 (10000)
I0929 21:55:28.343967 24303 layer_factory.hpp:76] Creating layer output_sum_layer
I0929 21:55:28.343976 24303 net.cpp:110] Creating Layer output_sum_layer
I0929 21:55:28.343979 24303 net.cpp:477] output_sum_layer <- hidden_act_blob
I0929 21:55:28.343994 24303 net.cpp:433] output_sum_layer -> output_sum_blob
I0929 21:55:28.344081 24303 net.cpp:155] Setting up output_sum_layer
I0929 21:55:28.344086 24303 net.cpp:163] Top shape: 1000 1 (1000)
I0929 21:55:28.344102 24303 layer_factory.hpp:76] Creating layer output_act_layer
I0929 21:55:28.344107 24303 net.cpp:110] Creating Layer output_act_layer
I0929 21:55:28.344110 24303 net.cpp:477] output_act_layer <- output_sum_blob
I0929 21:55:28.344112 24303 net.cpp:433] output_act_layer -> output_act_blob
I0929 21:55:28.344204 24303 net.cpp:155] Setting up output_act_layer
I0929 21:55:28.344208 24303 net.cpp:163] Top shape: 1000 1 (1000)
I0929 21:55:28.344244 24303 layer_factory.hpp:76] Creating layer error_layer
I0929 21:55:28.344259 24303 net.cpp:110] Creating Layer error_layer
I0929 21:55:28.344261 24303 net.cpp:477] error_layer <- output_act_blob
I0929 21:55:28.344264 24303 net.cpp:477] error_layer <- label_blob
I0929 21:55:28.344267 24303 net.cpp:433] error_layer -> error_blob
I0929 21:55:28.344290 24303 net.cpp:155] Setting up error_layer
…
