…
I1002 00:37:50.554182 23672 solver.cpp:97] Creating training net from net file: model/NNScore/nnscore_model_0.prototxt
I1002 00:37:50.554348 23672 net.cpp:339] The NetState phase (0) differed from the phase (1) specified by a rule in layer data_layer
I1002 00:37:50.554397 23672 net.cpp:50] Initializing net from parameters: 
name: "model/NNScore/nnscore_model_0.prototxt"
state {
  phase: TRAIN
}
layer {
  name: "data_layer"
  type: "Data"
  top: "data_blob"
  top: "label_blob"
  include {
    phase: TRAIN
  }
  data_param {
    source: "lmdb/SCOREDATA.vina.balanced.0.train"
    batch_size: 20000
    backend: LMDB
    prefetch: 8
  }
}
layer {
  name: "hidden_sum_layer"
  type: "InnerProduct"
  bottom: "data_blob"
  top: "hidden_sum_blob"
  inner_product_param {
    num_output: 10
    weight_filler {
      type: "xavier"
    }
    bias_filler {
      type: "constant"
    }
  }
}
layer {
  name: "hidden_act_layer"
  type: "Sigmoid"
  bottom: "hidden_sum_blob"
  top: "hidden_act_blob"
}
layer {
  name: "output_sum_layer"
  type: "InnerProduct"
  bottom: "hidden_act_blob"
  top: "output_sum_blob"
  inner_product_param {
    num_output: 1
    weight_filler {
      type: "xavier"
    }
    bias_filler {
      type: "constant"
    }
  }
}
layer {
  name: "output_act_layer"
  type: "Sigmoid"
  bottom: "output_sum_blob"
  top: "output_act_blob"
}
layer {
  name: "error_layer"
  type: "EuclideanLoss"
  bottom: "output_act_blob"
  bottom: "label_blob"
  top: "error_blob"
}
I1002 00:37:50.554463 23672 layer_factory.hpp:76] Creating layer data_layer
I1002 00:37:50.568413 23672 net.cpp:110] Creating Layer data_layer
I1002 00:37:50.568449 23672 net.cpp:433] data_layer -> data_blob
I1002 00:37:50.568470 23672 net.cpp:433] data_layer -> label_blob
I1002 00:37:50.569084 23676 db_lmdb.cpp:23] Opened lmdb lmdb/SCOREDATA.vina.balanced.0.train
I1002 00:37:51.289461 23672 data_layer.cpp:45] output data size: 20000,61,1,1
I1002 00:37:51.294524 23672 net.cpp:155] Setting up data_layer
I1002 00:37:51.294559 23672 net.cpp:163] Top shape: 20000 61 1 1 (1220000)
I1002 00:37:51.294574 23672 net.cpp:163] Top shape: 20000 (20000)
I1002 00:37:51.294581 23672 layer_factory.hpp:76] Creating layer hidden_sum_layer
I1002 00:37:51.294596 23672 net.cpp:110] Creating Layer hidden_sum_layer
I1002 00:37:51.294601 23672 net.cpp:477] hidden_sum_layer <- data_blob
I1002 00:37:51.294615 23672 net.cpp:433] hidden_sum_layer -> hidden_sum_blob
I1002 00:37:51.294982 23672 net.cpp:155] Setting up hidden_sum_layer
I1002 00:37:51.294991 23672 net.cpp:163] Top shape: 20000 10 (200000)
I1002 00:37:51.295006 23672 layer_factory.hpp:76] Creating layer hidden_act_layer
I1002 00:37:51.295018 23672 net.cpp:110] Creating Layer hidden_act_layer
I1002 00:37:51.295022 23672 net.cpp:477] hidden_act_layer <- hidden_sum_blob
I1002 00:37:51.295027 23672 net.cpp:433] hidden_act_layer -> hidden_act_blob
I1002 00:37:54.691012 23672 net.cpp:155] Setting up hidden_act_layer
I1002 00:37:54.691037 23672 net.cpp:163] Top shape: 20000 10 (200000)
I1002 00:37:54.691043 23672 layer_factory.hpp:76] Creating layer output_sum_layer
I1002 00:37:54.691056 23672 net.cpp:110] Creating Layer output_sum_layer
I1002 00:37:54.691061 23672 net.cpp:477] output_sum_layer <- hidden_act_blob
I1002 00:37:54.691068 23672 net.cpp:433] output_sum_layer -> output_sum_blob
I1002 00:37:54.691160 23672 net.cpp:155] Setting up output_sum_layer
I1002 00:37:54.691169 23672 net.cpp:163] Top shape: 20000 1 (20000)
I1002 00:37:54.691179 23672 layer_factory.hpp:76] Creating layer output_act_layer
I1002 00:37:54.691186 23672 net.cpp:110] Creating Layer output_act_layer
I1002 00:37:54.691190 23672 net.cpp:477] output_act_layer <- output_sum_blob
I1002 00:37:54.691195 23672 net.cpp:433] output_act_layer -> output_act_blob
I1002 00:37:54.691259 23672 net.cpp:155] Setting up output_act_layer
I1002 00:37:54.691274 23672 net.cpp:163] Top shape: 20000 1 (20000)
I1002 00:37:54.691279 23672 layer_factory.hpp:76] Creating layer error_layer
I1002 00:37:54.691287 23672 net.cpp:110] Creating Layer error_layer
I1002 00:37:54.691290 23672 net.cpp:477] error_layer <- output_act_blob
I1002 00:37:54.691295 23672 net.cpp:477] error_layer <- label_blob
I1002 00:37:54.691300 23672 net.cpp:433] error_layer -> error_blob
I1002 00:37:54.691330 23672 net.cpp:155] Setting up error_layer
…
I1002 00:37:54.691525 23672 solver.cpp:187] Creating test net (#0) specified by net file: model/NNScore/nnscore_model_0.prototxt
I1002 00:37:54.691541 23672 net.cpp:339] The NetState phase (1) differed from the phase (0) specified by a rule in layer data_layer
I1002 00:37:54.691577 23672 net.cpp:50] Initializing net from parameters: 
name: "model/NNScore/nnscore_model_0.prototxt"
state {
  phase: TEST
}
layer {
  name: "data_layer"
  type: "Data"
  top: "data_blob"
  top: "label_blob"
  include {
    phase: TEST
  }
  data_param {
    source: "lmdb/SCOREDATA.vina.balanced.0.test"
    batch_size: 2000
    backend: LMDB
    prefetch: 8
  }
}
layer {
  name: "hidden_sum_layer"
  type: "InnerProduct"
  bottom: "data_blob"
  top: "hidden_sum_blob"
  inner_product_param {
    num_output: 10
    weight_filler {
      type: "xavier"
    }
    bias_filler {
      type: "constant"
    }
  }
}
layer {
  name: "hidden_act_layer"
  type: "Sigmoid"
  bottom: "hidden_sum_blob"
  top: "hidden_act_blob"
}
layer {
  name: "output_sum_layer"
  type: "InnerProduct"
  bottom: "hidden_act_blob"
  top: "output_sum_blob"
  inner_product_param {
    num_output: 1
    weight_filler {
      type: "xavier"
    }
    bias_filler {
      type: "constant"
    }
  }
}
layer {
  name: "output_act_layer"
  type: "Sigmoid"
  bottom: "output_sum_blob"
  top: "output_act_blob"
}
layer {
  name: "error_layer"
  type: "EuclideanLoss"
  bottom: "output_act_blob"
  bottom: "label_blob"
  top: "error_blob"
}
I1002 00:37:54.691606 23672 layer_factory.hpp:76] Creating layer data_layer
I1002 00:37:54.692795 23672 net.cpp:110] Creating Layer data_layer
I1002 00:37:54.692812 23672 net.cpp:433] data_layer -> data_blob
I1002 00:37:54.692819 23672 net.cpp:433] data_layer -> label_blob
I1002 00:37:54.693374 23678 db_lmdb.cpp:23] Opened lmdb lmdb/SCOREDATA.vina.balanced.0.test
I1002 00:37:54.693452 23672 data_layer.cpp:45] output data size: 2000,61,1,1
I1002 00:37:54.694816 23672 net.cpp:155] Setting up data_layer
I1002 00:37:54.694836 23672 net.cpp:163] Top shape: 2000 61 1 1 (122000)
I1002 00:37:54.694841 23672 net.cpp:163] Top shape: 2000 (2000)
I1002 00:37:54.694855 23672 layer_factory.hpp:76] Creating layer hidden_sum_layer
I1002 00:37:54.694864 23672 net.cpp:110] Creating Layer hidden_sum_layer
I1002 00:37:54.694867 23672 net.cpp:477] hidden_sum_layer <- data_blob
I1002 00:37:54.694874 23672 net.cpp:433] hidden_sum_layer -> hidden_sum_blob
I1002 00:37:54.695021 23672 net.cpp:155] Setting up hidden_sum_layer
I1002 00:37:54.695036 23672 net.cpp:163] Top shape: 2000 10 (20000)
I1002 00:37:54.695057 23672 layer_factory.hpp:76] Creating layer hidden_act_layer
I1002 00:37:54.695073 23672 net.cpp:110] Creating Layer hidden_act_layer
I1002 00:37:54.695080 23672 net.cpp:477] hidden_act_layer <- hidden_sum_blob
I1002 00:37:54.695096 23672 net.cpp:433] hidden_act_layer -> hidden_act_blob
I1002 00:37:54.695294 23672 net.cpp:155] Setting up hidden_act_layer
I1002 00:37:54.695302 23672 net.cpp:163] Top shape: 2000 10 (20000)
I1002 00:37:54.695305 23672 layer_factory.hpp:76] Creating layer output_sum_layer
I1002 00:37:54.695322 23672 net.cpp:110] Creating Layer output_sum_layer
I1002 00:37:54.695325 23672 net.cpp:477] output_sum_layer <- hidden_act_blob
I1002 00:37:54.695332 23672 net.cpp:433] output_sum_layer -> output_sum_blob
I1002 00:37:54.695405 23672 net.cpp:155] Setting up output_sum_layer
I1002 00:37:54.695412 23672 net.cpp:163] Top shape: 2000 1 (2000)
I1002 00:37:54.695430 23672 layer_factory.hpp:76] Creating layer output_act_layer
I1002 00:37:54.695436 23672 net.cpp:110] Creating Layer output_act_layer
I1002 00:37:54.695441 23672 net.cpp:477] output_act_layer <- output_sum_blob
I1002 00:37:54.695446 23672 net.cpp:433] output_act_layer -> output_act_blob
I1002 00:37:54.695508 23672 net.cpp:155] Setting up output_act_layer
I1002 00:37:54.695514 23672 net.cpp:163] Top shape: 2000 1 (2000)
I1002 00:37:54.695518 23672 layer_factory.hpp:76] Creating layer error_layer
I1002 00:37:54.695533 23672 net.cpp:110] Creating Layer error_layer
I1002 00:37:54.695538 23672 net.cpp:477] error_layer <- output_act_blob
I1002 00:37:54.695541 23672 net.cpp:477] error_layer <- label_blob
I1002 00:37:54.695546 23672 net.cpp:433] error_layer -> error_blob
I1002 00:37:54.695572 23672 net.cpp:155] Setting up error_layer
…
I1002 01:20:56.867785 23798 solver.cpp:187] Creating test net (#0) specified by net file: model/NNScore/nnscore_model_full.prototxt
I1002 01:20:56.867807 23798 net.cpp:339] The NetState phase (1) differed from the phase (0) specified by a rule in layer data_layer
I1002 01:20:56.867846 23798 net.cpp:50] Initializing net from parameters: 
name: "model/NNScore/nnscore_model_full.prototxt"
state {
  phase: TEST
}
layer {
  name: "data_layer"
  type: "Data"
  top: "data_blob"
  top: "label_blob"
  include {
    phase: TEST
  }
  data_param {
    source: "lmdb/SCOREDATA.vina.balanced.full"
    batch_size: 2000
    backend: LMDB
    prefetch: 8
  }
}
layer {
  name: "hidden_sum_layer"
  type: "InnerProduct"
  bottom: "data_blob"
  top: "hidden_sum_blob"
  inner_product_param {
    num_output: 10
    weight_filler {
      type: "xavier"
    }
    bias_filler {
      type: "constant"
    }
  }
}
layer {
  name: "hidden_act_layer"
  type: "Sigmoid"
  bottom: "hidden_sum_blob"
  top: "hidden_act_blob"
}
layer {
  name: "output_sum_layer"
  type: "InnerProduct"
  bottom: "hidden_act_blob"
  top: "output_sum_blob"
  inner_product_param {
    num_output: 1
    weight_filler {
      type: "xavier"
    }
    bias_filler {
      type: "constant"
    }
  }
}
layer {
  name: "output_act_layer"
  type: "Sigmoid"
  bottom: "output_sum_blob"
  top: "output_act_blob"
}
layer {
  name: "error_layer"
  type: "EuclideanLoss"
  bottom: "output_act_blob"
  bottom: "label_blob"
  top: "error_blob"
}
I1002 01:20:56.867876 23798 layer_factory.hpp:76] Creating layer data_layer
I1002 01:20:56.869139 23798 net.cpp:110] Creating Layer data_layer
I1002 01:20:56.869143 23798 net.cpp:433] data_layer -> data_blob
I1002 01:20:56.869158 23798 net.cpp:433] data_layer -> label_blob
