…
I0929 23:03:23.204902 25301 solver.cpp:97] Creating training net from net file: model/NNScore/nnscore_model_0.prototxt
I0929 23:03:23.205067 25301 net.cpp:339] The NetState phase (0) differed from the phase (1) specified by a rule in layer data_layer
I0929 23:03:23.205112 25301 net.cpp:50] Initializing net from parameters: 
name: "model/NNScore/nnscore_model_0.prototxt"
state {
  phase: TRAIN
}
layer {
  name: "data_layer"
  type: "Data"
  top: "data_blob"
  top: "label_blob"
  include {
    phase: TRAIN
  }
  data_param {
    source: "lmdb/SCOREDATA.vina.balanced.0.train"
    batch_size: 20000
    backend: LMDB
    prefetch: 8
  }
}
layer {
  name: "hidden_sum_layer"
  type: "InnerProduct"
  bottom: "data_blob"
  top: "hidden_sum_blob"
  inner_product_param {
    num_output: 10
    weight_filler {
      type: "xavier"
    }
    bias_filler {
      type: "constant"
    }
  }
}
layer {
  name: "hidden_act_layer"
  type: "Sigmoid"
  bottom: "hidden_sum_blob"
  top: "hidden_act_blob"
}
layer {
  name: "output_sum_layer"
  type: "InnerProduct"
  bottom: "hidden_act_blob"
  top: "output_sum_blob"
  inner_product_param {
    num_output: 1
    weight_filler {
      type: "xavier"
    }
    bias_filler {
      type: "constant"
    }
  }
}
layer {
  name: "output_act_layer"
  type: "Sigmoid"
  bottom: "output_sum_blob"
  top: "output_act_blob"
}
layer {
  name: "error_layer"
  type: "EuclideanLoss"
  bottom: "output_act_blob"
  bottom: "label_blob"
  top: "error_blob"
}
I0929 23:03:23.205149 25301 layer_factory.hpp:76] Creating layer data_layer
I0929 23:03:23.218515 25301 net.cpp:110] Creating Layer data_layer
I0929 23:03:23.218544 25301 net.cpp:433] data_layer -> data_blob
I0929 23:03:23.218566 25301 net.cpp:433] data_layer -> label_blob
I0929 23:03:23.219148 25305 db_lmdb.cpp:23] Opened lmdb lmdb/SCOREDATA.vina.balanced.0.train
I0929 23:03:23.901798 25301 data_layer.cpp:45] output data size: 20000,61,1,1
I0929 23:03:23.906707 25301 net.cpp:155] Setting up data_layer
I0929 23:03:23.906759 25301 net.cpp:163] Top shape: 20000 61 1 1 (1220000)
I0929 23:03:23.906764 25301 net.cpp:163] Top shape: 20000 (20000)
I0929 23:03:23.906780 25301 layer_factory.hpp:76] Creating layer hidden_sum_layer
I0929 23:03:23.906801 25301 net.cpp:110] Creating Layer hidden_sum_layer
I0929 23:03:23.906805 25301 net.cpp:477] hidden_sum_layer <- data_blob
I0929 23:03:23.906813 25301 net.cpp:433] hidden_sum_layer -> hidden_sum_blob
I0929 23:03:23.907177 25301 net.cpp:155] Setting up hidden_sum_layer
I0929 23:03:23.907184 25301 net.cpp:163] Top shape: 20000 10 (200000)
I0929 23:03:23.907207 25301 layer_factory.hpp:76] Creating layer hidden_act_layer
I0929 23:03:23.907213 25301 net.cpp:110] Creating Layer hidden_act_layer
I0929 23:03:23.907215 25301 net.cpp:477] hidden_act_layer <- hidden_sum_blob
I0929 23:03:23.907218 25301 net.cpp:433] hidden_act_layer -> hidden_act_blob
I0929 23:03:27.111019 25301 net.cpp:155] Setting up hidden_act_layer
I0929 23:03:27.111042 25301 net.cpp:163] Top shape: 20000 10 (200000)
I0929 23:03:27.111048 25301 layer_factory.hpp:76] Creating layer output_sum_layer
I0929 23:03:27.111057 25301 net.cpp:110] Creating Layer output_sum_layer
I0929 23:03:27.111060 25301 net.cpp:477] output_sum_layer <- hidden_act_blob
I0929 23:03:27.111066 25301 net.cpp:433] output_sum_layer -> output_sum_blob
I0929 23:03:27.111145 25301 net.cpp:155] Setting up output_sum_layer
I0929 23:03:27.111150 25301 net.cpp:163] Top shape: 20000 1 (20000)
I0929 23:03:27.111172 25301 layer_factory.hpp:76] Creating layer output_act_layer
I0929 23:03:27.111177 25301 net.cpp:110] Creating Layer output_act_layer
I0929 23:03:27.111179 25301 net.cpp:477] output_act_layer <- output_sum_blob
I0929 23:03:27.111191 25301 net.cpp:433] output_act_layer -> output_act_blob
I0929 23:03:27.111243 25301 net.cpp:155] Setting up output_act_layer
I0929 23:03:27.111258 25301 net.cpp:163] Top shape: 20000 1 (20000)
I0929 23:03:27.111260 25301 layer_factory.hpp:76] Creating layer error_layer
I0929 23:03:27.111265 25301 net.cpp:110] Creating Layer error_layer
I0929 23:03:27.111268 25301 net.cpp:477] error_layer <- output_act_blob
I0929 23:03:27.111269 25301 net.cpp:477] error_layer <- label_blob
I0929 23:03:27.111273 25301 net.cpp:433] error_layer -> error_blob
I0929 23:03:27.111294 25301 net.cpp:155] Setting up error_layer
…
I0929 23:03:27.111449 25301 solver.cpp:187] Creating test net (#0) specified by net file: model/NNScore/nnscore_model_0.prototxt
I0929 23:03:27.111480 25301 net.cpp:339] The NetState phase (1) differed from the phase (0) specified by a rule in layer data_layer
I0929 23:03:27.111520 25301 net.cpp:50] Initializing net from parameters: 
name: "model/NNScore/nnscore_model_0.prototxt"
state {
  phase: TEST
}
layer {
  name: "data_layer"
  type: "Data"
  top: "data_blob"
  top: "label_blob"
  include {
    phase: TEST
  }
  data_param {
    source: "lmdb/SCOREDATA.vina.balanced.0.test"
    batch_size: 2000
    backend: LMDB
    prefetch: 8
  }
}
layer {
  name: "hidden_sum_layer"
  type: "InnerProduct"
  bottom: "data_blob"
  top: "hidden_sum_blob"
  inner_product_param {
    num_output: 10
    weight_filler {
      type: "xavier"
    }
    bias_filler {
      type: "constant"
    }
  }
}
layer {
  name: "hidden_act_layer"
  type: "Sigmoid"
  bottom: "hidden_sum_blob"
  top: "hidden_act_blob"
}
layer {
  name: "output_sum_layer"
  type: "InnerProduct"
  bottom: "hidden_act_blob"
  top: "output_sum_blob"
  inner_product_param {
    num_output: 1
    weight_filler {
      type: "xavier"
    }
    bias_filler {
      type: "constant"
    }
  }
}
layer {
  name: "output_act_layer"
  type: "Sigmoid"
  bottom: "output_sum_blob"
  top: "output_act_blob"
}
layer {
  name: "error_layer"
  type: "EuclideanLoss"
  bottom: "output_act_blob"
  bottom: "label_blob"
  top: "error_blob"
}
I0929 23:03:27.111538 25301 layer_factory.hpp:76] Creating layer data_layer
I0929 23:03:27.112696 25301 net.cpp:110] Creating Layer data_layer
I0929 23:03:27.112702 25301 net.cpp:433] data_layer -> data_blob
I0929 23:03:27.112725 25301 net.cpp:433] data_layer -> label_blob
I0929 23:03:27.113284 25307 db_lmdb.cpp:23] Opened lmdb lmdb/SCOREDATA.vina.balanced.0.test
I0929 23:03:27.113365 25301 data_layer.cpp:45] output data size: 2000,61,1,1
I0929 23:03:27.114650 25301 net.cpp:155] Setting up data_layer
I0929 23:03:27.114668 25301 net.cpp:163] Top shape: 2000 61 1 1 (122000)
I0929 23:03:27.114681 25301 net.cpp:163] Top shape: 2000 (2000)
I0929 23:03:27.114684 25301 layer_factory.hpp:76] Creating layer hidden_sum_layer
I0929 23:03:27.114691 25301 net.cpp:110] Creating Layer hidden_sum_layer
I0929 23:03:27.114692 25301 net.cpp:477] hidden_sum_layer <- data_blob
I0929 23:03:27.114696 25301 net.cpp:433] hidden_sum_layer -> hidden_sum_blob
I0929 23:03:27.114812 25301 net.cpp:155] Setting up hidden_sum_layer
I0929 23:03:27.114817 25301 net.cpp:163] Top shape: 2000 10 (20000)
I0929 23:03:27.114835 25301 layer_factory.hpp:76] Creating layer hidden_act_layer
I0929 23:03:27.114838 25301 net.cpp:110] Creating Layer hidden_act_layer
I0929 23:03:27.114840 25301 net.cpp:477] hidden_act_layer <- hidden_sum_blob
I0929 23:03:27.114852 25301 net.cpp:433] hidden_act_layer -> hidden_act_blob
I0929 23:03:27.115049 25301 net.cpp:155] Setting up hidden_act_layer
I0929 23:03:27.115056 25301 net.cpp:163] Top shape: 2000 10 (20000)
I0929 23:03:27.115068 25301 layer_factory.hpp:76] Creating layer output_sum_layer
I0929 23:03:27.115072 25301 net.cpp:110] Creating Layer output_sum_layer
I0929 23:03:27.115074 25301 net.cpp:477] output_sum_layer <- hidden_act_blob
I0929 23:03:27.115077 25301 net.cpp:433] output_sum_layer -> output_sum_blob
I0929 23:03:27.115144 25301 net.cpp:155] Setting up output_sum_layer
I0929 23:03:27.115149 25301 net.cpp:163] Top shape: 2000 1 (2000)
I0929 23:03:27.115165 25301 layer_factory.hpp:76] Creating layer output_act_layer
I0929 23:03:27.115169 25301 net.cpp:110] Creating Layer output_act_layer
I0929 23:03:27.115170 25301 net.cpp:477] output_act_layer <- output_sum_blob
I0929 23:03:27.115173 25301 net.cpp:433] output_act_layer -> output_act_blob
I0929 23:03:27.115231 25301 net.cpp:155] Setting up output_act_layer
I0929 23:03:27.115236 25301 net.cpp:163] Top shape: 2000 1 (2000)
I0929 23:03:27.115237 25301 layer_factory.hpp:76] Creating layer error_layer
I0929 23:03:27.115250 25301 net.cpp:110] Creating Layer error_layer
I0929 23:03:27.115252 25301 net.cpp:477] error_layer <- output_act_blob
I0929 23:03:27.115255 25301 net.cpp:477] error_layer <- label_blob
I0929 23:03:27.115258 25301 net.cpp:433] error_layer -> error_blob
I0929 23:03:27.115277 25301 net.cpp:155] Setting up error_layer
…
