…
momentum: 0.9
solver_mode: GPU
device_id: 0
net: "small_batch/model1_full.prototxt"
I1006 10:03:47.945552  3416 solver.cpp:97] Creating training net from net file: small_batch/model1_full.prototxt
I1006 10:03:47.945729  3416 net.cpp:50] Initializing net from parameters: 
name: "small_batch/model1_full.prototxt"
state {
  phase: TRAIN
}
layer {
  name: "data_layer"
  type: "Data"
  top: "data_blob"
  top: "label_blob"
  data_param {
    source: "lmdb/SCOREDATA.vina.balanced.full"
    batch_size: 200
    backend: LMDB
    prefetch: 8
  }
}
layer {
  name: "hidden_sum_layer"
  type: "InnerProduct"
  bottom: "data_blob"
  top: "hidden_sum_blob"
  inner_product_param {
    num_output: 10
    weight_filler {
      type: "xavier"
    }
    bias_filler {
      type: "constant"
    }
  }
}
layer {
  name: "hidden_act_layer"
  type: "Sigmoid"
  bottom: "hidden_sum_blob"
  top: "hidden_act_blob"
}
layer {
  name: "output_sum_layer"
  type: "InnerProduct"
  bottom: "hidden_act_blob"
  top: "output_sum_blob"
  inner_product_param {
    num_output: 1
    weight_filler {
      type: "xavier"
    }
    bias_filler {
      type: "constant"
    }
  }
}
layer {
  name: "output_act_layer"
  type: "Sigmoid"
  bottom: "output_sum_blob"
  top: "output_act_blob"
}
layer {
  name: "error_layer"
  type: "EuclideanLoss"
  bottom: "output_act_blob"
  bottom: "label_blob"
  top: "error_blob"
}
I1006 10:03:47.945777  3416 layer_factory.hpp:76] Creating layer data_layer
I1006 10:03:47.946274  3416 net.cpp:110] Creating Layer data_layer
I1006 10:03:47.946295  3416 net.cpp:433] data_layer -> data_blob
I1006 10:03:47.946338  3416 net.cpp:433] data_layer -> label_blob
I1006 10:03:47.946909  3420 db_lmdb.cpp:23] Opened lmdb lmdb/SCOREDATA.vina.balanced.full
I1006 10:03:48.629372  3416 data_layer.cpp:45] output data size: 200,61,1,1
I1006 10:03:48.629824  3416 net.cpp:155] Setting up data_layer
I1006 10:03:48.629858  3416 net.cpp:163] Top shape: 200 61 1 1 (12200)
I1006 10:03:48.629873  3416 net.cpp:163] Top shape: 200 (200)
I1006 10:03:48.629879  3416 layer_factory.hpp:76] Creating layer hidden_sum_layer
I1006 10:03:48.629891  3416 net.cpp:110] Creating Layer hidden_sum_layer
I1006 10:03:48.629895  3416 net.cpp:477] hidden_sum_layer <- data_blob
I1006 10:03:48.629914  3416 net.cpp:433] hidden_sum_layer -> hidden_sum_blob
I1006 10:03:48.630283  3416 net.cpp:155] Setting up hidden_sum_layer
I1006 10:03:48.630290  3416 net.cpp:163] Top shape: 200 10 (2000)
I1006 10:03:48.630321  3416 layer_factory.hpp:76] Creating layer hidden_act_layer
I1006 10:03:48.630328  3416 net.cpp:110] Creating Layer hidden_act_layer
I1006 10:03:48.630331  3416 net.cpp:477] hidden_act_layer <- hidden_sum_blob
I1006 10:03:48.630336  3416 net.cpp:433] hidden_act_layer -> hidden_act_blob
I1006 10:03:51.810482  3416 net.cpp:155] Setting up hidden_act_layer
I1006 10:03:51.810504  3416 net.cpp:163] Top shape: 200 10 (2000)
I1006 10:03:51.810509  3416 layer_factory.hpp:76] Creating layer output_sum_layer
I1006 10:03:51.810519  3416 net.cpp:110] Creating Layer output_sum_layer
I1006 10:03:51.810523  3416 net.cpp:477] output_sum_layer <- hidden_act_blob
I1006 10:03:51.810528  3416 net.cpp:433] output_sum_layer -> output_sum_blob
I1006 10:03:51.810590  3416 net.cpp:155] Setting up output_sum_layer
I1006 10:03:51.810595  3416 net.cpp:163] Top shape: 200 1 (200)
I1006 10:03:51.810601  3416 layer_factory.hpp:76] Creating layer output_act_layer
I1006 10:03:51.810606  3416 net.cpp:110] Creating Layer output_act_layer
I1006 10:03:51.810608  3416 net.cpp:477] output_act_layer <- output_sum_blob
I1006 10:03:51.810611  3416 net.cpp:433] output_act_layer -> output_act_blob
I1006 10:03:51.810664  3416 net.cpp:155] Setting up output_act_layer
I1006 10:03:51.810668  3416 net.cpp:163] Top shape: 200 1 (200)
I1006 10:03:51.810670  3416 layer_factory.hpp:76] Creating layer error_layer
I1006 10:03:51.810675  3416 net.cpp:110] Creating Layer error_layer
I1006 10:03:51.810678  3416 net.cpp:477] error_layer <- output_act_blob
I1006 10:03:51.810696  3416 net.cpp:477] error_layer <- label_blob
I1006 10:03:51.810700  3416 net.cpp:433] error_layer -> error_blob
I1006 10:03:51.810722  3416 net.cpp:155] Setting up error_layer
…
I1006 09:35:54.573000  2478 solver.cpp:187] Creating test net (#0) specified by net file: small_batch/model1_part2.prototxt
I1006 09:35:54.573024  2478 net.cpp:339] The NetState phase (1) differed from the phase (0) specified by a rule in layer data_layer
I1006 09:35:54.573073  2478 net.cpp:50] Initializing net from parameters: 
name: "small_batch/model1_part2.prototxt"
state {
  phase: TEST
}
layer {
  name: "data_layer"
  type: "Data"
  top: "data_blob"
  top: "label_blob"
  include {
    phase: TEST
  }
  data_param {
    source: "lmdb/SCOREDATA.vina.balanced.part2.test"
    batch_size: 20
    backend: LMDB
    prefetch: 8
  }
}
layer {
  name: "hidden_sum_layer"
  type: "InnerProduct"
  bottom: "data_blob"
  top: "hidden_sum_blob"
  inner_product_param {
    num_output: 10
    weight_filler {
      type: "xavier"
    }
    bias_filler {
      type: "constant"
    }
  }
}
layer {
  name: "hidden_act_layer"
  type: "Sigmoid"
  bottom: "hidden_sum_blob"
  top: "hidden_act_blob"
}
layer {
  name: "output_sum_layer"
  type: "InnerProduct"
  bottom: "hidden_act_blob"
  top: "output_sum_blob"
  inner_product_param {
    num_output: 1
    weight_filler {
      type: "xavier"
    }
    bias_filler {
      type: "constant"
    }
  }
}
layer {
  name: "output_act_layer"
  type: "Sigmoid"
  bottom: "output_sum_blob"
  top: "output_act_blob"
}
layer {
  name: "error_layer"
  type: "EuclideanLoss"
  bottom: "output_act_blob"
  bottom: "label_blob"
  top: "error_blob"
}
I1006 09:35:54.573103  2478 layer_factory.hpp:76] Creating layer data_layer
I1006 09:35:54.573163  2478 net.cpp:110] Creating Layer data_layer
I1006 09:35:54.573179  2478 net.cpp:433] data_layer -> data_blob
I1006 09:35:54.573182  2478 net.cpp:433] data_layer -> label_blob
I1006 09:35:54.573760  2487 db_lmdb.cpp:23] Opened lmdb lmdb/SCOREDATA.vina.balanced.part2.test
I1006 09:35:54.573838  2478 data_layer.cpp:45] output data size: 20,61,1,1
I1006 09:35:54.574430  2478 net.cpp:155] Setting up data_layer
I1006 09:35:54.574439  2478 net.cpp:163] Top shape: 20 61 1 1 (1220)
I1006 09:35:54.574441  2478 net.cpp:163] Top shape: 20 (20)
I1006 09:35:54.574445  2478 layer_factory.hpp:76] Creating layer hidden_sum_layer
I1006 09:35:54.574448  2478 net.cpp:110] Creating Layer hidden_sum_layer
I1006 09:35:54.574451  2478 net.cpp:477] hidden_sum_layer <- data_blob
I1006 09:35:54.574455  2478 net.cpp:433] hidden_sum_layer -> hidden_sum_blob
I1006 09:35:54.574540  2478 net.cpp:155] Setting up hidden_sum_layer
I1006 09:35:54.574545  2478 net.cpp:163] Top shape: 20 10 (200)
I1006 09:35:54.574553  2478 layer_factory.hpp:76] Creating layer hidden_act_layer
I1006 09:35:54.574556  2478 net.cpp:110] Creating Layer hidden_act_layer
I1006 09:35:54.574558  2478 net.cpp:477] hidden_act_layer <- hidden_sum_blob
I1006 09:35:54.574569  2478 net.cpp:433] hidden_act_layer -> hidden_act_blob
I1006 09:35:54.574729  2478 net.cpp:155] Setting up hidden_act_layer
I1006 09:35:54.574735  2478 net.cpp:163] Top shape: 20 10 (200)
I1006 09:35:54.574738  2478 layer_factory.hpp:76] Creating layer output_sum_layer
I1006 09:35:54.574743  2478 net.cpp:110] Creating Layer output_sum_layer
I1006 09:35:54.574744  2478 net.cpp:477] output_sum_layer <- hidden_act_blob
I1006 09:35:54.574748  2478 net.cpp:433] output_sum_layer -> output_sum_blob
I1006 09:35:54.574800  2478 net.cpp:155] Setting up output_sum_layer
I1006 09:35:54.574813  2478 net.cpp:163] Top shape: 20 1 (20)
I1006 09:35:54.574818  2478 layer_factory.hpp:76] Creating layer output_act_layer
I1006 09:35:54.574831  2478 net.cpp:110] Creating Layer output_act_layer
I1006 09:35:54.574833  2478 net.cpp:477] output_act_layer <- output_sum_blob
I1006 09:35:54.574836  2478 net.cpp:433] output_act_layer -> output_act_blob
I1006 09:35:54.574913  2478 net.cpp:155] Setting up output_act_layer
I1006 09:35:54.574915  2478 net.cpp:163] Top shape: 20 1 (20)
I1006 09:35:54.574918  2478 layer_factory.hpp:76] Creating layer error_layer
I1006 09:35:54.574930  2478 net.cpp:110] Creating Layer error_layer
I1006 09:35:54.574933  2478 net.cpp:477] error_layer <- output_act_blob
I1006 09:35:54.574934  2478 net.cpp:477] error_layer <- label_blob
I1006 09:35:54.574937  2478 net.cpp:433] error_layer -> error_blob
I1006 09:35:54.574967  2478 net.cpp:155] Setting up error_layer
…
